DiffHOI_S(
  (encoder_vq): AutoencoderKL(
    (encoder): Encoder(
      (conv_in): Conv2d(3, 128, kernel_size=(3, 3), stride=(1, 1), padding=(1, 1))
      (down): ModuleList(
        (0): Module(
          (block): ModuleList(
            (0): ResnetBlock(
              (norm1): GroupNorm(32, 128, eps=1e-06, affine=True)
              (conv1): Conv2d(128, 128, kernel_size=(3, 3), stride=(1, 1), padding=(1, 1))
              (norm2): GroupNorm(32, 128, eps=1e-06, affine=True)
              (dropout): Dropout(p=0.0, inplace=False)
              (conv2): Conv2d(128, 128, kernel_size=(3, 3), stride=(1, 1), padding=(1, 1))
            )
            (1): ResnetBlock(
              (norm1): GroupNorm(32, 128, eps=1e-06, affine=True)
              (conv1): Conv2d(128, 128, kernel_size=(3, 3), stride=(1, 1), padding=(1, 1))
              (norm2): GroupNorm(32, 128, eps=1e-06, affine=True)
              (dropout): Dropout(p=0.0, inplace=False)
              (conv2): Conv2d(128, 128, kernel_size=(3, 3), stride=(1, 1), padding=(1, 1))
            )
          )
          (attn): ModuleList()
          (downsample): Downsample(
            (conv): Conv2d(128, 128, kernel_size=(3, 3), stride=(2, 2))
          )
        )
        (1): Module(
          (block): ModuleList(
            (0): ResnetBlock(
              (norm1): GroupNorm(32, 128, eps=1e-06, affine=True)
              (conv1): Conv2d(128, 256, kernel_size=(3, 3), stride=(1, 1), padding=(1, 1))
              (norm2): GroupNorm(32, 256, eps=1e-06, affine=True)
              (dropout): Dropout(p=0.0, inplace=False)
              (conv2): Conv2d(256, 256, kernel_size=(3, 3), stride=(1, 1), padding=(1, 1))
              (nin_shortcut): Conv2d(128, 256, kernel_size=(1, 1), stride=(1, 1))
            )
            (1): ResnetBlock(
              (norm1): GroupNorm(32, 256, eps=1e-06, affine=True)
              (conv1): Conv2d(256, 256, kernel_size=(3, 3), stride=(1, 1), padding=(1, 1))
              (norm2): GroupNorm(32, 256, eps=1e-06, affine=True)
              (dropout): Dropout(p=0.0, inplace=False)
              (conv2): Conv2d(256, 256, kernel_size=(3, 3), stride=(1, 1), padding=(1, 1))
            )
          )
          (attn): ModuleList()
          (downsample): Downsample(
            (conv): Conv2d(256, 256, kernel_size=(3, 3), stride=(2, 2))
          )
        )
        (2): Module(
          (block): ModuleList(
            (0): ResnetBlock(
              (norm1): GroupNorm(32, 256, eps=1e-06, affine=True)
              (conv1): Conv2d(256, 512, kernel_size=(3, 3), stride=(1, 1), padding=(1, 1))
              (norm2): GroupNorm(32, 512, eps=1e-06, affine=True)
              (dropout): Dropout(p=0.0, inplace=False)
              (conv2): Conv2d(512, 512, kernel_size=(3, 3), stride=(1, 1), padding=(1, 1))
              (nin_shortcut): Conv2d(256, 512, kernel_size=(1, 1), stride=(1, 1))
            )
            (1): ResnetBlock(
              (norm1): GroupNorm(32, 512, eps=1e-06, affine=True)
              (conv1): Conv2d(512, 512, kernel_size=(3, 3), stride=(1, 1), padding=(1, 1))
              (norm2): GroupNorm(32, 512, eps=1e-06, affine=True)
              (dropout): Dropout(p=0.0, inplace=False)
              (conv2): Conv2d(512, 512, kernel_size=(3, 3), stride=(1, 1), padding=(1, 1))
            )
          )
          (attn): ModuleList()
          (downsample): Downsample(
            (conv): Conv2d(512, 512, kernel_size=(3, 3), stride=(2, 2))
          )
        )
        (3): Module(
          (block): ModuleList(
            (0): ResnetBlock(
              (norm1): GroupNorm(32, 512, eps=1e-06, affine=True)
              (conv1): Conv2d(512, 512, kernel_size=(3, 3), stride=(1, 1), padding=(1, 1))
              (norm2): GroupNorm(32, 512, eps=1e-06, affine=True)
              (dropout): Dropout(p=0.0, inplace=False)
              (conv2): Conv2d(512, 512, kernel_size=(3, 3), stride=(1, 1), padding=(1, 1))
            )
            (1): ResnetBlock(
              (norm1): GroupNorm(32, 512, eps=1e-06, affine=True)
              (conv1): Conv2d(512, 512, kernel_size=(3, 3), stride=(1, 1), padding=(1, 1))
              (norm2): GroupNorm(32, 512, eps=1e-06, affine=True)
              (dropout): Dropout(p=0.0, inplace=False)
              (conv2): Conv2d(512, 512, kernel_size=(3, 3), stride=(1, 1), padding=(1, 1))
            )
          )
          (attn): ModuleList()
        )
      )
      (mid): Module(
        (block_1): ResnetBlock(
          (norm1): GroupNorm(32, 512, eps=1e-06, affine=True)
          (conv1): Conv2d(512, 512, kernel_size=(3, 3), stride=(1, 1), padding=(1, 1))
          (norm2): GroupNorm(32, 512, eps=1e-06, affine=True)
          (dropout): Dropout(p=0.0, inplace=False)
          (conv2): Conv2d(512, 512, kernel_size=(3, 3), stride=(1, 1), padding=(1, 1))
        )
        (attn_1): AttnBlock(
          (norm): GroupNorm(32, 512, eps=1e-06, affine=True)
          (q): Conv2d(512, 512, kernel_size=(1, 1), stride=(1, 1))
          (k): Conv2d(512, 512, kernel_size=(1, 1), stride=(1, 1))
          (v): Conv2d(512, 512, kernel_size=(1, 1), stride=(1, 1))
          (proj_out): Conv2d(512, 512, kernel_size=(1, 1), stride=(1, 1))
        )
        (block_2): ResnetBlock(
          (norm1): GroupNorm(32, 512, eps=1e-06, affine=True)
          (conv1): Conv2d(512, 512, kernel_size=(3, 3), stride=(1, 1), padding=(1, 1))
          (norm2): GroupNorm(32, 512, eps=1e-06, affine=True)
          (dropout): Dropout(p=0.0, inplace=False)
          (conv2): Conv2d(512, 512, kernel_size=(3, 3), stride=(1, 1), padding=(1, 1))
        )
      )
      (norm_out): GroupNorm(32, 512, eps=1e-06, affine=True)
      (conv_out): Conv2d(512, 8, kernel_size=(3, 3), stride=(1, 1), padding=(1, 1))
    )
    (loss): Identity()
    (quant_conv): Conv2d(8, 8, kernel_size=(1, 1), stride=(1, 1))
    (post_quant_conv): Conv2d(4, 4, kernel_size=(1, 1), stride=(1, 1))
  )
  (unet): UNetWrapper(
    (unet): DiffusionWrapper(
      (diffusion_model): UNetModel(
        (time_embed): Sequential(
          (0): Linear(in_features=320, out_features=1280, bias=True)
          (1): SiLU()
          (2): Linear(in_features=1280, out_features=1280, bias=True)
        )
        (input_blocks): ModuleList(
          (0): TimestepEmbedSequential(
            (0): Conv2d(4, 320, kernel_size=(3, 3), stride=(1, 1), padding=(1, 1))
          )
          (1): TimestepEmbedSequential(
            (0): ResBlock(
              (in_layers): Sequential(
                (0): GroupNorm32(32, 320, eps=1e-05, affine=True)
                (1): SiLU()
                (2): Conv2d(320, 320, kernel_size=(3, 3), stride=(1, 1), padding=(1, 1))
              )
              (h_upd): Identity()
              (x_upd): Identity()
              (emb_layers): Sequential(
                (0): SiLU()
                (1): Linear(in_features=1280, out_features=320, bias=True)
              )
              (out_layers): Sequential(
                (0): GroupNorm32(32, 320, eps=1e-05, affine=True)
                (1): SiLU()
                (2): Dropout(p=0, inplace=False)
                (3): Conv2d(320, 320, kernel_size=(3, 3), stride=(1, 1), padding=(1, 1))
              )
              (skip_connection): Identity()
            )
            (1): SpatialTransformer(
              (norm): GroupNorm(32, 320, eps=1e-06, affine=True)
              (proj_in): Conv2d(320, 320, kernel_size=(1, 1), stride=(1, 1))
              (transformer_blocks): ModuleList(
                (0): BasicTransformerBlock(
                  (attn1): CrossAttention(
                    (to_q): Linear(in_features=320, out_features=320, bias=False)
                    (to_k): Linear(in_features=320, out_features=320, bias=False)
                    (to_v): Linear(in_features=320, out_features=320, bias=False)
                    (to_out): Sequential(
                      (0): Linear(in_features=320, out_features=320, bias=True)
                      (1): Dropout(p=0.0, inplace=False)
                    )
                  )
                  (ff): FeedForward(
                    (net): Sequential(
                      (0): GEGLU(
                        (proj): Linear(in_features=320, out_features=2560, bias=True)
                      )
                      (1): Dropout(p=0.0, inplace=False)
                      (2): Linear(in_features=1280, out_features=320, bias=True)
                    )
                  )
                  (attn2): CrossAttention(
                    (to_q): Linear(in_features=320, out_features=320, bias=False)
                    (to_k): Linear(in_features=768, out_features=320, bias=False)
                    (to_v): Linear(in_features=768, out_features=320, bias=False)
                    (to_out): Sequential(
                      (0): Linear(in_features=320, out_features=320, bias=True)
                      (1): Dropout(p=0.0, inplace=False)
                    )
                  )
                  (norm1): LayerNorm((320,), eps=1e-05, elementwise_affine=True)
                  (norm2): LayerNorm((320,), eps=1e-05, elementwise_affine=True)
                  (norm3): LayerNorm((320,), eps=1e-05, elementwise_affine=True)
                )
              )
              (proj_out): Conv2d(320, 320, kernel_size=(1, 1), stride=(1, 1))
            )
          )
          (2): TimestepEmbedSequential(
            (0): ResBlock(
              (in_layers): Sequential(
                (0): GroupNorm32(32, 320, eps=1e-05, affine=True)
                (1): SiLU()
                (2): Conv2d(320, 320, kernel_size=(3, 3), stride=(1, 1), padding=(1, 1))
              )
              (h_upd): Identity()
              (x_upd): Identity()
              (emb_layers): Sequential(
                (0): SiLU()
                (1): Linear(in_features=1280, out_features=320, bias=True)
              )
              (out_layers): Sequential(
                (0): GroupNorm32(32, 320, eps=1e-05, affine=True)
                (1): SiLU()
                (2): Dropout(p=0, inplace=False)
                (3): Conv2d(320, 320, kernel_size=(3, 3), stride=(1, 1), padding=(1, 1))
              )
              (skip_connection): Identity()
            )
            (1): SpatialTransformer(
              (norm): GroupNorm(32, 320, eps=1e-06, affine=True)
              (proj_in): Conv2d(320, 320, kernel_size=(1, 1), stride=(1, 1))
              (transformer_blocks): ModuleList(
                (0): BasicTransformerBlock(
                  (attn1): CrossAttention(
                    (to_q): Linear(in_features=320, out_features=320, bias=False)
                    (to_k): Linear(in_features=320, out_features=320, bias=False)
                    (to_v): Linear(in_features=320, out_features=320, bias=False)
                    (to_out): Sequential(
                      (0): Linear(in_features=320, out_features=320, bias=True)
                      (1): Dropout(p=0.0, inplace=False)
                    )
                  )
                  (ff): FeedForward(
                    (net): Sequential(
                      (0): GEGLU(
                        (proj): Linear(in_features=320, out_features=2560, bias=True)
                      )
                      (1): Dropout(p=0.0, inplace=False)
                      (2): Linear(in_features=1280, out_features=320, bias=True)
                    )
                  )
                  (attn2): CrossAttention(
                    (to_q): Linear(in_features=320, out_features=320, bias=False)
                    (to_k): Linear(in_features=768, out_features=320, bias=False)
                    (to_v): Linear(in_features=768, out_features=320, bias=False)
                    (to_out): Sequential(
                      (0): Linear(in_features=320, out_features=320, bias=True)
                      (1): Dropout(p=0.0, inplace=False)
                    )
                  )
                  (norm1): LayerNorm((320,), eps=1e-05, elementwise_affine=True)
                  (norm2): LayerNorm((320,), eps=1e-05, elementwise_affine=True)
                  (norm3): LayerNorm((320,), eps=1e-05, elementwise_affine=True)
                )
              )
              (proj_out): Conv2d(320, 320, kernel_size=(1, 1), stride=(1, 1))
            )
          )
          (3): TimestepEmbedSequential(
            (0): Downsample(
              (op): Conv2d(320, 320, kernel_size=(3, 3), stride=(2, 2), padding=(1, 1))
            )
          )
          (4): TimestepEmbedSequential(
            (0): ResBlock(
              (in_layers): Sequential(
                (0): GroupNorm32(32, 320, eps=1e-05, affine=True)
                (1): SiLU()
                (2): Conv2d(320, 640, kernel_size=(3, 3), stride=(1, 1), padding=(1, 1))
              )
              (h_upd): Identity()
              (x_upd): Identity()
              (emb_layers): Sequential(
                (0): SiLU()
                (1): Linear(in_features=1280, out_features=640, bias=True)
              )
              (out_layers): Sequential(
                (0): GroupNorm32(32, 640, eps=1e-05, affine=True)
                (1): SiLU()
                (2): Dropout(p=0, inplace=False)
                (3): Conv2d(640, 640, kernel_size=(3, 3), stride=(1, 1), padding=(1, 1))
              )
              (skip_connection): Conv2d(320, 640, kernel_size=(1, 1), stride=(1, 1))
            )
            (1): SpatialTransformer(
              (norm): GroupNorm(32, 640, eps=1e-06, affine=True)
              (proj_in): Conv2d(640, 640, kernel_size=(1, 1), stride=(1, 1))
              (transformer_blocks): ModuleList(
                (0): BasicTransformerBlock(
                  (attn1): CrossAttention(
                    (to_q): Linear(in_features=640, out_features=640, bias=False)
                    (to_k): Linear(in_features=640, out_features=640, bias=False)
                    (to_v): Linear(in_features=640, out_features=640, bias=False)
                    (to_out): Sequential(
                      (0): Linear(in_features=640, out_features=640, bias=True)
                      (1): Dropout(p=0.0, inplace=False)
                    )
                  )
                  (ff): FeedForward(
                    (net): Sequential(
                      (0): GEGLU(
                        (proj): Linear(in_features=640, out_features=5120, bias=True)
                      )
                      (1): Dropout(p=0.0, inplace=False)
                      (2): Linear(in_features=2560, out_features=640, bias=True)
                    )
                  )
                  (attn2): CrossAttention(
                    (to_q): Linear(in_features=640, out_features=640, bias=False)
                    (to_k): Linear(in_features=768, out_features=640, bias=False)
                    (to_v): Linear(in_features=768, out_features=640, bias=False)
                    (to_out): Sequential(
                      (0): Linear(in_features=640, out_features=640, bias=True)
                      (1): Dropout(p=0.0, inplace=False)
                    )
                  )
                  (norm1): LayerNorm((640,), eps=1e-05, elementwise_affine=True)
                  (norm2): LayerNorm((640,), eps=1e-05, elementwise_affine=True)
                  (norm3): LayerNorm((640,), eps=1e-05, elementwise_affine=True)
                )
              )
              (proj_out): Conv2d(640, 640, kernel_size=(1, 1), stride=(1, 1))
            )
          )
          (5): TimestepEmbedSequential(
            (0): ResBlock(
              (in_layers): Sequential(
                (0): GroupNorm32(32, 640, eps=1e-05, affine=True)
                (1): SiLU()
                (2): Conv2d(640, 640, kernel_size=(3, 3), stride=(1, 1), padding=(1, 1))
              )
              (h_upd): Identity()
              (x_upd): Identity()
              (emb_layers): Sequential(
                (0): SiLU()
                (1): Linear(in_features=1280, out_features=640, bias=True)
              )
              (out_layers): Sequential(
                (0): GroupNorm32(32, 640, eps=1e-05, affine=True)
                (1): SiLU()
                (2): Dropout(p=0, inplace=False)
                (3): Conv2d(640, 640, kernel_size=(3, 3), stride=(1, 1), padding=(1, 1))
              )
              (skip_connection): Identity()
            )
            (1): SpatialTransformer(
              (norm): GroupNorm(32, 640, eps=1e-06, affine=True)
              (proj_in): Conv2d(640, 640, kernel_size=(1, 1), stride=(1, 1))
              (transformer_blocks): ModuleList(
                (0): BasicTransformerBlock(
                  (attn1): CrossAttention(
                    (to_q): Linear(in_features=640, out_features=640, bias=False)
                    (to_k): Linear(in_features=640, out_features=640, bias=False)
                    (to_v): Linear(in_features=640, out_features=640, bias=False)
                    (to_out): Sequential(
                      (0): Linear(in_features=640, out_features=640, bias=True)
                      (1): Dropout(p=0.0, inplace=False)
                    )
                  )
                  (ff): FeedForward(
                    (net): Sequential(
                      (0): GEGLU(
                        (proj): Linear(in_features=640, out_features=5120, bias=True)
                      )
                      (1): Dropout(p=0.0, inplace=False)
                      (2): Linear(in_features=2560, out_features=640, bias=True)
                    )
                  )
                  (attn2): CrossAttention(
                    (to_q): Linear(in_features=640, out_features=640, bias=False)
                    (to_k): Linear(in_features=768, out_features=640, bias=False)
                    (to_v): Linear(in_features=768, out_features=640, bias=False)
                    (to_out): Sequential(
                      (0): Linear(in_features=640, out_features=640, bias=True)
                      (1): Dropout(p=0.0, inplace=False)
                    )
                  )
                  (norm1): LayerNorm((640,), eps=1e-05, elementwise_affine=True)
                  (norm2): LayerNorm((640,), eps=1e-05, elementwise_affine=True)
                  (norm3): LayerNorm((640,), eps=1e-05, elementwise_affine=True)
                )
              )
              (proj_out): Conv2d(640, 640, kernel_size=(1, 1), stride=(1, 1))
            )
          )
          (6): TimestepEmbedSequential(
            (0): Downsample(
              (op): Conv2d(640, 640, kernel_size=(3, 3), stride=(2, 2), padding=(1, 1))
            )
          )
          (7): TimestepEmbedSequential(
            (0): ResBlock(
              (in_layers): Sequential(
                (0): GroupNorm32(32, 640, eps=1e-05, affine=True)
                (1): SiLU()
                (2): Conv2d(640, 1280, kernel_size=(3, 3), stride=(1, 1), padding=(1, 1))
              )
              (h_upd): Identity()
              (x_upd): Identity()
              (emb_layers): Sequential(
                (0): SiLU()
                (1): Linear(in_features=1280, out_features=1280, bias=True)
              )
              (out_layers): Sequential(
                (0): GroupNorm32(32, 1280, eps=1e-05, affine=True)
                (1): SiLU()
                (2): Dropout(p=0, inplace=False)
                (3): Conv2d(1280, 1280, kernel_size=(3, 3), stride=(1, 1), padding=(1, 1))
              )
              (skip_connection): Conv2d(640, 1280, kernel_size=(1, 1), stride=(1, 1))
            )
            (1): SpatialTransformer(
              (norm): GroupNorm(32, 1280, eps=1e-06, affine=True)
              (proj_in): Conv2d(1280, 1280, kernel_size=(1, 1), stride=(1, 1))
              (transformer_blocks): ModuleList(
                (0): BasicTransformerBlock(
                  (attn1): CrossAttention(
                    (to_q): Linear(in_features=1280, out_features=1280, bias=False)
                    (to_k): Linear(in_features=1280, out_features=1280, bias=False)
                    (to_v): Linear(in_features=1280, out_features=1280, bias=False)
                    (to_out): Sequential(
                      (0): Linear(in_features=1280, out_features=1280, bias=True)
                      (1): Dropout(p=0.0, inplace=False)
                    )
                  )
                  (ff): FeedForward(
                    (net): Sequential(
                      (0): GEGLU(
                        (proj): Linear(in_features=1280, out_features=10240, bias=True)
                      )
                      (1): Dropout(p=0.0, inplace=False)
                      (2): Linear(in_features=5120, out_features=1280, bias=True)
                    )
                  )
                  (attn2): CrossAttention(
                    (to_q): Linear(in_features=1280, out_features=1280, bias=False)
                    (to_k): Linear(in_features=768, out_features=1280, bias=False)
                    (to_v): Linear(in_features=768, out_features=1280, bias=False)
                    (to_out): Sequential(
                      (0): Linear(in_features=1280, out_features=1280, bias=True)
                      (1): Dropout(p=0.0, inplace=False)
                    )
                  )
                  (norm1): LayerNorm((1280,), eps=1e-05, elementwise_affine=True)
                  (norm2): LayerNorm((1280,), eps=1e-05, elementwise_affine=True)
                  (norm3): LayerNorm((1280,), eps=1e-05, elementwise_affine=True)
                )
              )
              (proj_out): Conv2d(1280, 1280, kernel_size=(1, 1), stride=(1, 1))
            )
          )
          (8): TimestepEmbedSequential(
            (0): ResBlock(
              (in_layers): Sequential(
                (0): GroupNorm32(32, 1280, eps=1e-05, affine=True)
                (1): SiLU()
                (2): Conv2d(1280, 1280, kernel_size=(3, 3), stride=(1, 1), padding=(1, 1))
              )
              (h_upd): Identity()
              (x_upd): Identity()
              (emb_layers): Sequential(
                (0): SiLU()
                (1): Linear(in_features=1280, out_features=1280, bias=True)
              )
              (out_layers): Sequential(
                (0): GroupNorm32(32, 1280, eps=1e-05, affine=True)
                (1): SiLU()
                (2): Dropout(p=0, inplace=False)
                (3): Conv2d(1280, 1280, kernel_size=(3, 3), stride=(1, 1), padding=(1, 1))
              )
              (skip_connection): Identity()
            )
            (1): SpatialTransformer(
              (norm): GroupNorm(32, 1280, eps=1e-06, affine=True)
              (proj_in): Conv2d(1280, 1280, kernel_size=(1, 1), stride=(1, 1))
              (transformer_blocks): ModuleList(
                (0): BasicTransformerBlock(
                  (attn1): CrossAttention(
                    (to_q): Linear(in_features=1280, out_features=1280, bias=False)
                    (to_k): Linear(in_features=1280, out_features=1280, bias=False)
                    (to_v): Linear(in_features=1280, out_features=1280, bias=False)
                    (to_out): Sequential(
                      (0): Linear(in_features=1280, out_features=1280, bias=True)
                      (1): Dropout(p=0.0, inplace=False)
                    )
                  )
                  (ff): FeedForward(
                    (net): Sequential(
                      (0): GEGLU(
                        (proj): Linear(in_features=1280, out_features=10240, bias=True)
                      )
                      (1): Dropout(p=0.0, inplace=False)
                      (2): Linear(in_features=5120, out_features=1280, bias=True)
                    )
                  )
                  (attn2): CrossAttention(
                    (to_q): Linear(in_features=1280, out_features=1280, bias=False)
                    (to_k): Linear(in_features=768, out_features=1280, bias=False)
                    (to_v): Linear(in_features=768, out_features=1280, bias=False)
                    (to_out): Sequential(
                      (0): Linear(in_features=1280, out_features=1280, bias=True)
                      (1): Dropout(p=0.0, inplace=False)
                    )
                  )
                  (norm1): LayerNorm((1280,), eps=1e-05, elementwise_affine=True)
                  (norm2): LayerNorm((1280,), eps=1e-05, elementwise_affine=True)
                  (norm3): LayerNorm((1280,), eps=1e-05, elementwise_affine=True)
                )
              )
              (proj_out): Conv2d(1280, 1280, kernel_size=(1, 1), stride=(1, 1))
            )
          )
          (9): TimestepEmbedSequential(
            (0): Downsample(
              (op): Conv2d(1280, 1280, kernel_size=(3, 3), stride=(2, 2), padding=(1, 1))
            )
          )
          (10): TimestepEmbedSequential(
            (0): ResBlock(
              (in_layers): Sequential(
                (0): GroupNorm32(32, 1280, eps=1e-05, affine=True)
                (1): SiLU()
                (2): Conv2d(1280, 1280, kernel_size=(3, 3), stride=(1, 1), padding=(1, 1))
              )
              (h_upd): Identity()
              (x_upd): Identity()
              (emb_layers): Sequential(
                (0): SiLU()
                (1): Linear(in_features=1280, out_features=1280, bias=True)
              )
              (out_layers): Sequential(
                (0): GroupNorm32(32, 1280, eps=1e-05, affine=True)
                (1): SiLU()
                (2): Dropout(p=0, inplace=False)
                (3): Conv2d(1280, 1280, kernel_size=(3, 3), stride=(1, 1), padding=(1, 1))
              )
              (skip_connection): Identity()
            )
          )
          (11): TimestepEmbedSequential(
            (0): ResBlock(
              (in_layers): Sequential(
                (0): GroupNorm32(32, 1280, eps=1e-05, affine=True)
                (1): SiLU()
                (2): Conv2d(1280, 1280, kernel_size=(3, 3), stride=(1, 1), padding=(1, 1))
              )
              (h_upd): Identity()
              (x_upd): Identity()
              (emb_layers): Sequential(
                (0): SiLU()
                (1): Linear(in_features=1280, out_features=1280, bias=True)
              )
              (out_layers): Sequential(
                (0): GroupNorm32(32, 1280, eps=1e-05, affine=True)
                (1): SiLU()
                (2): Dropout(p=0, inplace=False)
                (3): Conv2d(1280, 1280, kernel_size=(3, 3), stride=(1, 1), padding=(1, 1))
              )
              (skip_connection): Identity()
            )
          )
        )
        (middle_block): TimestepEmbedSequential(
          (0): ResBlock(
            (in_layers): Sequential(
              (0): GroupNorm32(32, 1280, eps=1e-05, affine=True)
              (1): SiLU()
              (2): Conv2d(1280, 1280, kernel_size=(3, 3), stride=(1, 1), padding=(1, 1))
            )
            (h_upd): Identity()
            (x_upd): Identity()
            (emb_layers): Sequential(
              (0): SiLU()
              (1): Linear(in_features=1280, out_features=1280, bias=True)
            )
            (out_layers): Sequential(
              (0): GroupNorm32(32, 1280, eps=1e-05, affine=True)
              (1): SiLU()
              (2): Dropout(p=0, inplace=False)
              (3): Conv2d(1280, 1280, kernel_size=(3, 3), stride=(1, 1), padding=(1, 1))
            )
            (skip_connection): Identity()
          )
          (1): SpatialTransformer(
            (norm): GroupNorm(32, 1280, eps=1e-06, affine=True)
            (proj_in): Conv2d(1280, 1280, kernel_size=(1, 1), stride=(1, 1))
            (transformer_blocks): ModuleList(
              (0): BasicTransformerBlock(
                (attn1): CrossAttention(
                  (to_q): Linear(in_features=1280, out_features=1280, bias=False)
                  (to_k): Linear(in_features=1280, out_features=1280, bias=False)
                  (to_v): Linear(in_features=1280, out_features=1280, bias=False)
                  (to_out): Sequential(
                    (0): Linear(in_features=1280, out_features=1280, bias=True)
                    (1): Dropout(p=0.0, inplace=False)
                  )
                )
                (ff): FeedForward(
                  (net): Sequential(
                    (0): GEGLU(
                      (proj): Linear(in_features=1280, out_features=10240, bias=True)
                    )
                    (1): Dropout(p=0.0, inplace=False)
                    (2): Linear(in_features=5120, out_features=1280, bias=True)
                  )
                )
                (attn2): CrossAttention(
                  (to_q): Linear(in_features=1280, out_features=1280, bias=False)
                  (to_k): Linear(in_features=768, out_features=1280, bias=False)
                  (to_v): Linear(in_features=768, out_features=1280, bias=False)
                  (to_out): Sequential(
                    (0): Linear(in_features=1280, out_features=1280, bias=True)
                    (1): Dropout(p=0.0, inplace=False)
                  )
                )
                (norm1): LayerNorm((1280,), eps=1e-05, elementwise_affine=True)
                (norm2): LayerNorm((1280,), eps=1e-05, elementwise_affine=True)
                (norm3): LayerNorm((1280,), eps=1e-05, elementwise_affine=True)
              )
            )
            (proj_out): Conv2d(1280, 1280, kernel_size=(1, 1), stride=(1, 1))
          )
          (2): ResBlock(
            (in_layers): Sequential(
              (0): GroupNorm32(32, 1280, eps=1e-05, affine=True)
              (1): SiLU()
              (2): Conv2d(1280, 1280, kernel_size=(3, 3), stride=(1, 1), padding=(1, 1))
            )
            (h_upd): Identity()
            (x_upd): Identity()
            (emb_layers): Sequential(
              (0): SiLU()
              (1): Linear(in_features=1280, out_features=1280, bias=True)
            )
            (out_layers): Sequential(
              (0): GroupNorm32(32, 1280, eps=1e-05, affine=True)
              (1): SiLU()
              (2): Dropout(p=0, inplace=False)
              (3): Conv2d(1280, 1280, kernel_size=(3, 3), stride=(1, 1), padding=(1, 1))
            )
            (skip_connection): Identity()
          )
        )
        (output_blocks): ModuleList(
          (0): TimestepEmbedSequential(
            (0): ResBlock(
              (in_layers): Sequential(
                (0): GroupNorm32(32, 2560, eps=1e-05, affine=True)
                (1): SiLU()
                (2): Conv2d(2560, 1280, kernel_size=(3, 3), stride=(1, 1), padding=(1, 1))
              )
              (h_upd): Identity()
              (x_upd): Identity()
              (emb_layers): Sequential(
                (0): SiLU()
                (1): Linear(in_features=1280, out_features=1280, bias=True)
              )
              (out_layers): Sequential(
                (0): GroupNorm32(32, 1280, eps=1e-05, affine=True)
                (1): SiLU()
                (2): Dropout(p=0, inplace=False)
                (3): Conv2d(1280, 1280, kernel_size=(3, 3), stride=(1, 1), padding=(1, 1))
              )
              (skip_connection): Conv2d(2560, 1280, kernel_size=(1, 1), stride=(1, 1))
            )
          )
          (1): TimestepEmbedSequential(
            (0): ResBlock(
              (in_layers): Sequential(
                (0): GroupNorm32(32, 2560, eps=1e-05, affine=True)
                (1): SiLU()
                (2): Conv2d(2560, 1280, kernel_size=(3, 3), stride=(1, 1), padding=(1, 1))
              )
              (h_upd): Identity()
              (x_upd): Identity()
              (emb_layers): Sequential(
                (0): SiLU()
                (1): Linear(in_features=1280, out_features=1280, bias=True)
              )
              (out_layers): Sequential(
                (0): GroupNorm32(32, 1280, eps=1e-05, affine=True)
                (1): SiLU()
                (2): Dropout(p=0, inplace=False)
                (3): Conv2d(1280, 1280, kernel_size=(3, 3), stride=(1, 1), padding=(1, 1))
              )
              (skip_connection): Conv2d(2560, 1280, kernel_size=(1, 1), stride=(1, 1))
            )
          )
          (2): TimestepEmbedSequential(
            (0): ResBlock(
              (in_layers): Sequential(
                (0): GroupNorm32(32, 2560, eps=1e-05, affine=True)
                (1): SiLU()
                (2): Conv2d(2560, 1280, kernel_size=(3, 3), stride=(1, 1), padding=(1, 1))
              )
              (h_upd): Identity()
              (x_upd): Identity()
              (emb_layers): Sequential(
                (0): SiLU()
                (1): Linear(in_features=1280, out_features=1280, bias=True)
              )
              (out_layers): Sequential(
                (0): GroupNorm32(32, 1280, eps=1e-05, affine=True)
                (1): SiLU()
                (2): Dropout(p=0, inplace=False)
                (3): Conv2d(1280, 1280, kernel_size=(3, 3), stride=(1, 1), padding=(1, 1))
              )
              (skip_connection): Conv2d(2560, 1280, kernel_size=(1, 1), stride=(1, 1))
            )
            (1): Upsample(
              (conv): Conv2d(1280, 1280, kernel_size=(3, 3), stride=(1, 1), padding=(1, 1))
            )
          )
          (3): TimestepEmbedSequential(
            (0): ResBlock(
              (in_layers): Sequential(
                (0): GroupNorm32(32, 2560, eps=1e-05, affine=True)
                (1): SiLU()
                (2): Conv2d(2560, 1280, kernel_size=(3, 3), stride=(1, 1), padding=(1, 1))
              )
              (h_upd): Identity()
              (x_upd): Identity()
              (emb_layers): Sequential(
                (0): SiLU()
                (1): Linear(in_features=1280, out_features=1280, bias=True)
              )
              (out_layers): Sequential(
                (0): GroupNorm32(32, 1280, eps=1e-05, affine=True)
                (1): SiLU()
                (2): Dropout(p=0, inplace=False)
                (3): Conv2d(1280, 1280, kernel_size=(3, 3), stride=(1, 1), padding=(1, 1))
              )
              (skip_connection): Conv2d(2560, 1280, kernel_size=(1, 1), stride=(1, 1))
            )
            (1): SpatialTransformer(
              (norm): GroupNorm(32, 1280, eps=1e-06, affine=True)
              (proj_in): Conv2d(1280, 1280, kernel_size=(1, 1), stride=(1, 1))
              (transformer_blocks): ModuleList(
                (0): BasicTransformerBlock(
                  (attn1): CrossAttention(
                    (to_q): Linear(in_features=1280, out_features=1280, bias=False)
                    (to_k): Linear(in_features=1280, out_features=1280, bias=False)
                    (to_v): Linear(in_features=1280, out_features=1280, bias=False)
                    (to_out): Sequential(
                      (0): Linear(in_features=1280, out_features=1280, bias=True)
                      (1): Dropout(p=0.0, inplace=False)
                    )
                  )
                  (ff): FeedForward(
                    (net): Sequential(
                      (0): GEGLU(
                        (proj): Linear(in_features=1280, out_features=10240, bias=True)
                      )
                      (1): Dropout(p=0.0, inplace=False)
                      (2): Linear(in_features=5120, out_features=1280, bias=True)
                    )
                  )
                  (attn2): CrossAttention(
                    (to_q): Linear(in_features=1280, out_features=1280, bias=False)
                    (to_k): Linear(in_features=768, out_features=1280, bias=False)
                    (to_v): Linear(in_features=768, out_features=1280, bias=False)
                    (to_out): Sequential(
                      (0): Linear(in_features=1280, out_features=1280, bias=True)
                      (1): Dropout(p=0.0, inplace=False)
                    )
                  )
                  (norm1): LayerNorm((1280,), eps=1e-05, elementwise_affine=True)
                  (norm2): LayerNorm((1280,), eps=1e-05, elementwise_affine=True)
                  (norm3): LayerNorm((1280,), eps=1e-05, elementwise_affine=True)
                )
              )
              (proj_out): Conv2d(1280, 1280, kernel_size=(1, 1), stride=(1, 1))
            )
          )
          (4): TimestepEmbedSequential(
            (0): ResBlock(
              (in_layers): Sequential(
                (0): GroupNorm32(32, 2560, eps=1e-05, affine=True)
                (1): SiLU()
                (2): Conv2d(2560, 1280, kernel_size=(3, 3), stride=(1, 1), padding=(1, 1))
              )
              (h_upd): Identity()
              (x_upd): Identity()
              (emb_layers): Sequential(
                (0): SiLU()
                (1): Linear(in_features=1280, out_features=1280, bias=True)
              )
              (out_layers): Sequential(
                (0): GroupNorm32(32, 1280, eps=1e-05, affine=True)
                (1): SiLU()
                (2): Dropout(p=0, inplace=False)
                (3): Conv2d(1280, 1280, kernel_size=(3, 3), stride=(1, 1), padding=(1, 1))
              )
              (skip_connection): Conv2d(2560, 1280, kernel_size=(1, 1), stride=(1, 1))
            )
            (1): SpatialTransformer(
              (norm): GroupNorm(32, 1280, eps=1e-06, affine=True)
              (proj_in): Conv2d(1280, 1280, kernel_size=(1, 1), stride=(1, 1))
              (transformer_blocks): ModuleList(
                (0): BasicTransformerBlock(
                  (attn1): CrossAttention(
                    (to_q): Linear(in_features=1280, out_features=1280, bias=False)
                    (to_k): Linear(in_features=1280, out_features=1280, bias=False)
                    (to_v): Linear(in_features=1280, out_features=1280, bias=False)
                    (to_out): Sequential(
                      (0): Linear(in_features=1280, out_features=1280, bias=True)
                      (1): Dropout(p=0.0, inplace=False)
                    )
                  )
                  (ff): FeedForward(
                    (net): Sequential(
                      (0): GEGLU(
                        (proj): Linear(in_features=1280, out_features=10240, bias=True)
                      )
                      (1): Dropout(p=0.0, inplace=False)
                      (2): Linear(in_features=5120, out_features=1280, bias=True)
                    )
                  )
                  (attn2): CrossAttention(
                    (to_q): Linear(in_features=1280, out_features=1280, bias=False)
                    (to_k): Linear(in_features=768, out_features=1280, bias=False)
                    (to_v): Linear(in_features=768, out_features=1280, bias=False)
                    (to_out): Sequential(
                      (0): Linear(in_features=1280, out_features=1280, bias=True)
                      (1): Dropout(p=0.0, inplace=False)
                    )
                  )
                  (norm1): LayerNorm((1280,), eps=1e-05, elementwise_affine=True)
                  (norm2): LayerNorm((1280,), eps=1e-05, elementwise_affine=True)
                  (norm3): LayerNorm((1280,), eps=1e-05, elementwise_affine=True)
                )
              )
              (proj_out): Conv2d(1280, 1280, kernel_size=(1, 1), stride=(1, 1))
            )
          )
          (5): TimestepEmbedSequential(
            (0): ResBlock(
              (in_layers): Sequential(
                (0): GroupNorm32(32, 1920, eps=1e-05, affine=True)
                (1): SiLU()
                (2): Conv2d(1920, 1280, kernel_size=(3, 3), stride=(1, 1), padding=(1, 1))
              )
              (h_upd): Identity()
              (x_upd): Identity()
              (emb_layers): Sequential(
                (0): SiLU()
                (1): Linear(in_features=1280, out_features=1280, bias=True)
              )
              (out_layers): Sequential(
                (0): GroupNorm32(32, 1280, eps=1e-05, affine=True)
                (1): SiLU()
                (2): Dropout(p=0, inplace=False)
                (3): Conv2d(1280, 1280, kernel_size=(3, 3), stride=(1, 1), padding=(1, 1))
              )
              (skip_connection): Conv2d(1920, 1280, kernel_size=(1, 1), stride=(1, 1))
            )
            (1): SpatialTransformer(
              (norm): GroupNorm(32, 1280, eps=1e-06, affine=True)
              (proj_in): Conv2d(1280, 1280, kernel_size=(1, 1), stride=(1, 1))
              (transformer_blocks): ModuleList(
                (0): BasicTransformerBlock(
                  (attn1): CrossAttention(
                    (to_q): Linear(in_features=1280, out_features=1280, bias=False)
                    (to_k): Linear(in_features=1280, out_features=1280, bias=False)
                    (to_v): Linear(in_features=1280, out_features=1280, bias=False)
                    (to_out): Sequential(
                      (0): Linear(in_features=1280, out_features=1280, bias=True)
                      (1): Dropout(p=0.0, inplace=False)
                    )
                  )
                  (ff): FeedForward(
                    (net): Sequential(
                      (0): GEGLU(
                        (proj): Linear(in_features=1280, out_features=10240, bias=True)
                      )
                      (1): Dropout(p=0.0, inplace=False)
                      (2): Linear(in_features=5120, out_features=1280, bias=True)
                    )
                  )
                  (attn2): CrossAttention(
                    (to_q): Linear(in_features=1280, out_features=1280, bias=False)
                    (to_k): Linear(in_features=768, out_features=1280, bias=False)
                    (to_v): Linear(in_features=768, out_features=1280, bias=False)
                    (to_out): Sequential(
                      (0): Linear(in_features=1280, out_features=1280, bias=True)
                      (1): Dropout(p=0.0, inplace=False)
                    )
                  )
                  (norm1): LayerNorm((1280,), eps=1e-05, elementwise_affine=True)
                  (norm2): LayerNorm((1280,), eps=1e-05, elementwise_affine=True)
                  (norm3): LayerNorm((1280,), eps=1e-05, elementwise_affine=True)
                )
              )
              (proj_out): Conv2d(1280, 1280, kernel_size=(1, 1), stride=(1, 1))
            )
            (2): Upsample(
              (conv): Conv2d(1280, 1280, kernel_size=(3, 3), stride=(1, 1), padding=(1, 1))
            )
          )
          (6): TimestepEmbedSequential(
            (0): ResBlock(
              (in_layers): Sequential(
                (0): GroupNorm32(32, 1920, eps=1e-05, affine=True)
                (1): SiLU()
                (2): Conv2d(1920, 640, kernel_size=(3, 3), stride=(1, 1), padding=(1, 1))
              )
              (h_upd): Identity()
              (x_upd): Identity()
              (emb_layers): Sequential(
                (0): SiLU()
                (1): Linear(in_features=1280, out_features=640, bias=True)
              )
              (out_layers): Sequential(
                (0): GroupNorm32(32, 640, eps=1e-05, affine=True)
                (1): SiLU()
                (2): Dropout(p=0, inplace=False)
                (3): Conv2d(640, 640, kernel_size=(3, 3), stride=(1, 1), padding=(1, 1))
              )
              (skip_connection): Conv2d(1920, 640, kernel_size=(1, 1), stride=(1, 1))
            )
            (1): SpatialTransformer(
              (norm): GroupNorm(32, 640, eps=1e-06, affine=True)
              (proj_in): Conv2d(640, 640, kernel_size=(1, 1), stride=(1, 1))
              (transformer_blocks): ModuleList(
                (0): BasicTransformerBlock(
                  (attn1): CrossAttention(
                    (to_q): Linear(in_features=640, out_features=640, bias=False)
                    (to_k): Linear(in_features=640, out_features=640, bias=False)
                    (to_v): Linear(in_features=640, out_features=640, bias=False)
                    (to_out): Sequential(
                      (0): Linear(in_features=640, out_features=640, bias=True)
                      (1): Dropout(p=0.0, inplace=False)
                    )
                  )
                  (ff): FeedForward(
                    (net): Sequential(
                      (0): GEGLU(
                        (proj): Linear(in_features=640, out_features=5120, bias=True)
                      )
                      (1): Dropout(p=0.0, inplace=False)
                      (2): Linear(in_features=2560, out_features=640, bias=True)
                    )
                  )
                  (attn2): CrossAttention(
                    (to_q): Linear(in_features=640, out_features=640, bias=False)
                    (to_k): Linear(in_features=768, out_features=640, bias=False)
                    (to_v): Linear(in_features=768, out_features=640, bias=False)
                    (to_out): Sequential(
                      (0): Linear(in_features=640, out_features=640, bias=True)
                      (1): Dropout(p=0.0, inplace=False)
                    )
                  )
                  (norm1): LayerNorm((640,), eps=1e-05, elementwise_affine=True)
                  (norm2): LayerNorm((640,), eps=1e-05, elementwise_affine=True)
                  (norm3): LayerNorm((640,), eps=1e-05, elementwise_affine=True)
                )
              )
              (proj_out): Conv2d(640, 640, kernel_size=(1, 1), stride=(1, 1))
            )
          )
          (7): TimestepEmbedSequential(
            (0): ResBlock(
              (in_layers): Sequential(
                (0): GroupNorm32(32, 1280, eps=1e-05, affine=True)
                (1): SiLU()
                (2): Conv2d(1280, 640, kernel_size=(3, 3), stride=(1, 1), padding=(1, 1))
              )
              (h_upd): Identity()
              (x_upd): Identity()
              (emb_layers): Sequential(
                (0): SiLU()
                (1): Linear(in_features=1280, out_features=640, bias=True)
              )
              (out_layers): Sequential(
                (0): GroupNorm32(32, 640, eps=1e-05, affine=True)
                (1): SiLU()
                (2): Dropout(p=0, inplace=False)
                (3): Conv2d(640, 640, kernel_size=(3, 3), stride=(1, 1), padding=(1, 1))
              )
              (skip_connection): Conv2d(1280, 640, kernel_size=(1, 1), stride=(1, 1))
            )
            (1): SpatialTransformer(
              (norm): GroupNorm(32, 640, eps=1e-06, affine=True)
              (proj_in): Conv2d(640, 640, kernel_size=(1, 1), stride=(1, 1))
              (transformer_blocks): ModuleList(
                (0): BasicTransformerBlock(
                  (attn1): CrossAttention(
                    (to_q): Linear(in_features=640, out_features=640, bias=False)
                    (to_k): Linear(in_features=640, out_features=640, bias=False)
                    (to_v): Linear(in_features=640, out_features=640, bias=False)
                    (to_out): Sequential(
                      (0): Linear(in_features=640, out_features=640, bias=True)
                      (1): Dropout(p=0.0, inplace=False)
                    )
                  )
                  (ff): FeedForward(
                    (net): Sequential(
                      (0): GEGLU(
                        (proj): Linear(in_features=640, out_features=5120, bias=True)
                      )
                      (1): Dropout(p=0.0, inplace=False)
                      (2): Linear(in_features=2560, out_features=640, bias=True)
                    )
                  )
                  (attn2): CrossAttention(
                    (to_q): Linear(in_features=640, out_features=640, bias=False)
                    (to_k): Linear(in_features=768, out_features=640, bias=False)
                    (to_v): Linear(in_features=768, out_features=640, bias=False)
                    (to_out): Sequential(
                      (0): Linear(in_features=640, out_features=640, bias=True)
                      (1): Dropout(p=0.0, inplace=False)
                    )
                  )
                  (norm1): LayerNorm((640,), eps=1e-05, elementwise_affine=True)
                  (norm2): LayerNorm((640,), eps=1e-05, elementwise_affine=True)
                  (norm3): LayerNorm((640,), eps=1e-05, elementwise_affine=True)
                )
              )
              (proj_out): Conv2d(640, 640, kernel_size=(1, 1), stride=(1, 1))
            )
          )
          (8): TimestepEmbedSequential(
            (0): ResBlock(
              (in_layers): Sequential(
                (0): GroupNorm32(32, 960, eps=1e-05, affine=True)
                (1): SiLU()
                (2): Conv2d(960, 640, kernel_size=(3, 3), stride=(1, 1), padding=(1, 1))
              )
              (h_upd): Identity()
              (x_upd): Identity()
              (emb_layers): Sequential(
                (0): SiLU()
                (1): Linear(in_features=1280, out_features=640, bias=True)
              )
              (out_layers): Sequential(
                (0): GroupNorm32(32, 640, eps=1e-05, affine=True)
                (1): SiLU()
                (2): Dropout(p=0, inplace=False)
                (3): Conv2d(640, 640, kernel_size=(3, 3), stride=(1, 1), padding=(1, 1))
              )
              (skip_connection): Conv2d(960, 640, kernel_size=(1, 1), stride=(1, 1))
            )
            (1): SpatialTransformer(
              (norm): GroupNorm(32, 640, eps=1e-06, affine=True)
              (proj_in): Conv2d(640, 640, kernel_size=(1, 1), stride=(1, 1))
              (transformer_blocks): ModuleList(
                (0): BasicTransformerBlock(
                  (attn1): CrossAttention(
                    (to_q): Linear(in_features=640, out_features=640, bias=False)
                    (to_k): Linear(in_features=640, out_features=640, bias=False)
                    (to_v): Linear(in_features=640, out_features=640, bias=False)
                    (to_out): Sequential(
                      (0): Linear(in_features=640, out_features=640, bias=True)
                      (1): Dropout(p=0.0, inplace=False)
                    )
                  )
                  (ff): FeedForward(
                    (net): Sequential(
                      (0): GEGLU(
                        (proj): Linear(in_features=640, out_features=5120, bias=True)
                      )
                      (1): Dropout(p=0.0, inplace=False)
                      (2): Linear(in_features=2560, out_features=640, bias=True)
                    )
                  )
                  (attn2): CrossAttention(
                    (to_q): Linear(in_features=640, out_features=640, bias=False)
                    (to_k): Linear(in_features=768, out_features=640, bias=False)
                    (to_v): Linear(in_features=768, out_features=640, bias=False)
                    (to_out): Sequential(
                      (0): Linear(in_features=640, out_features=640, bias=True)
                      (1): Dropout(p=0.0, inplace=False)
                    )
                  )
                  (norm1): LayerNorm((640,), eps=1e-05, elementwise_affine=True)
                  (norm2): LayerNorm((640,), eps=1e-05, elementwise_affine=True)
                  (norm3): LayerNorm((640,), eps=1e-05, elementwise_affine=True)
                )
              )
              (proj_out): Conv2d(640, 640, kernel_size=(1, 1), stride=(1, 1))
            )
            (2): Upsample(
              (conv): Conv2d(640, 640, kernel_size=(3, 3), stride=(1, 1), padding=(1, 1))
            )
          )
          (9): TimestepEmbedSequential(
            (0): ResBlock(
              (in_layers): Sequential(
                (0): GroupNorm32(32, 960, eps=1e-05, affine=True)
                (1): SiLU()
                (2): Conv2d(960, 320, kernel_size=(3, 3), stride=(1, 1), padding=(1, 1))
              )
              (h_upd): Identity()
              (x_upd): Identity()
              (emb_layers): Sequential(
                (0): SiLU()
                (1): Linear(in_features=1280, out_features=320, bias=True)
              )
              (out_layers): Sequential(
                (0): GroupNorm32(32, 320, eps=1e-05, affine=True)
                (1): SiLU()
                (2): Dropout(p=0, inplace=False)
                (3): Conv2d(320, 320, kernel_size=(3, 3), stride=(1, 1), padding=(1, 1))
              )
              (skip_connection): Conv2d(960, 320, kernel_size=(1, 1), stride=(1, 1))
            )
            (1): SpatialTransformer(
              (norm): GroupNorm(32, 320, eps=1e-06, affine=True)
              (proj_in): Conv2d(320, 320, kernel_size=(1, 1), stride=(1, 1))
              (transformer_blocks): ModuleList(
                (0): BasicTransformerBlock(
                  (attn1): CrossAttention(
                    (to_q): Linear(in_features=320, out_features=320, bias=False)
                    (to_k): Linear(in_features=320, out_features=320, bias=False)
                    (to_v): Linear(in_features=320, out_features=320, bias=False)
                    (to_out): Sequential(
                      (0): Linear(in_features=320, out_features=320, bias=True)
                      (1): Dropout(p=0.0, inplace=False)
                    )
                  )
                  (ff): FeedForward(
                    (net): Sequential(
                      (0): GEGLU(
                        (proj): Linear(in_features=320, out_features=2560, bias=True)
                      )
                      (1): Dropout(p=0.0, inplace=False)
                      (2): Linear(in_features=1280, out_features=320, bias=True)
                    )
                  )
                  (attn2): CrossAttention(
                    (to_q): Linear(in_features=320, out_features=320, bias=False)
                    (to_k): Linear(in_features=768, out_features=320, bias=False)
                    (to_v): Linear(in_features=768, out_features=320, bias=False)
                    (to_out): Sequential(
                      (0): Linear(in_features=320, out_features=320, bias=True)
                      (1): Dropout(p=0.0, inplace=False)
                    )
                  )
                  (norm1): LayerNorm((320,), eps=1e-05, elementwise_affine=True)
                  (norm2): LayerNorm((320,), eps=1e-05, elementwise_affine=True)
                  (norm3): LayerNorm((320,), eps=1e-05, elementwise_affine=True)
                )
              )
              (proj_out): Conv2d(320, 320, kernel_size=(1, 1), stride=(1, 1))
            )
          )
          (10): TimestepEmbedSequential(
            (0): ResBlock(
              (in_layers): Sequential(
                (0): GroupNorm32(32, 640, eps=1e-05, affine=True)
                (1): SiLU()
                (2): Conv2d(640, 320, kernel_size=(3, 3), stride=(1, 1), padding=(1, 1))
              )
              (h_upd): Identity()
              (x_upd): Identity()
              (emb_layers): Sequential(
                (0): SiLU()
                (1): Linear(in_features=1280, out_features=320, bias=True)
              )
              (out_layers): Sequential(
                (0): GroupNorm32(32, 320, eps=1e-05, affine=True)
                (1): SiLU()
                (2): Dropout(p=0, inplace=False)
                (3): Conv2d(320, 320, kernel_size=(3, 3), stride=(1, 1), padding=(1, 1))
              )
              (skip_connection): Conv2d(640, 320, kernel_size=(1, 1), stride=(1, 1))
            )
            (1): SpatialTransformer(
              (norm): GroupNorm(32, 320, eps=1e-06, affine=True)
              (proj_in): Conv2d(320, 320, kernel_size=(1, 1), stride=(1, 1))
              (transformer_blocks): ModuleList(
                (0): BasicTransformerBlock(
                  (attn1): CrossAttention(
                    (to_q): Linear(in_features=320, out_features=320, bias=False)
                    (to_k): Linear(in_features=320, out_features=320, bias=False)
                    (to_v): Linear(in_features=320, out_features=320, bias=False)
                    (to_out): Sequential(
                      (0): Linear(in_features=320, out_features=320, bias=True)
                      (1): Dropout(p=0.0, inplace=False)
                    )
                  )
                  (ff): FeedForward(
                    (net): Sequential(
                      (0): GEGLU(
                        (proj): Linear(in_features=320, out_features=2560, bias=True)
                      )
                      (1): Dropout(p=0.0, inplace=False)
                      (2): Linear(in_features=1280, out_features=320, bias=True)
                    )
                  )
                  (attn2): CrossAttention(
                    (to_q): Linear(in_features=320, out_features=320, bias=False)
                    (to_k): Linear(in_features=768, out_features=320, bias=False)
                    (to_v): Linear(in_features=768, out_features=320, bias=False)
                    (to_out): Sequential(
                      (0): Linear(in_features=320, out_features=320, bias=True)
                      (1): Dropout(p=0.0, inplace=False)
                    )
                  )
                  (norm1): LayerNorm((320,), eps=1e-05, elementwise_affine=True)
                  (norm2): LayerNorm((320,), eps=1e-05, elementwise_affine=True)
                  (norm3): LayerNorm((320,), eps=1e-05, elementwise_affine=True)
                )
              )
              (proj_out): Conv2d(320, 320, kernel_size=(1, 1), stride=(1, 1))
            )
          )
          (11): TimestepEmbedSequential(
            (0): ResBlock(
              (in_layers): Sequential(
                (0): GroupNorm32(32, 640, eps=1e-05, affine=True)
                (1): SiLU()
                (2): Conv2d(640, 320, kernel_size=(3, 3), stride=(1, 1), padding=(1, 1))
              )
              (h_upd): Identity()
              (x_upd): Identity()
              (emb_layers): Sequential(
                (0): SiLU()
                (1): Linear(in_features=1280, out_features=320, bias=True)
              )
              (out_layers): Sequential(
                (0): GroupNorm32(32, 320, eps=1e-05, affine=True)
                (1): SiLU()
                (2): Dropout(p=0, inplace=False)
                (3): Conv2d(320, 320, kernel_size=(3, 3), stride=(1, 1), padding=(1, 1))
              )
              (skip_connection): Conv2d(640, 320, kernel_size=(1, 1), stride=(1, 1))
            )
            (1): SpatialTransformer(
              (norm): GroupNorm(32, 320, eps=1e-06, affine=True)
              (proj_in): Conv2d(320, 320, kernel_size=(1, 1), stride=(1, 1))
              (transformer_blocks): ModuleList(
                (0): BasicTransformerBlock(
                  (attn1): CrossAttention(
                    (to_q): Linear(in_features=320, out_features=320, bias=False)
                    (to_k): Linear(in_features=320, out_features=320, bias=False)
                    (to_v): Linear(in_features=320, out_features=320, bias=False)
                    (to_out): Sequential(
                      (0): Linear(in_features=320, out_features=320, bias=True)
                      (1): Dropout(p=0.0, inplace=False)
                    )
                  )
                  (ff): FeedForward(
                    (net): Sequential(
                      (0): GEGLU(
                        (proj): Linear(in_features=320, out_features=2560, bias=True)
                      )
                      (1): Dropout(p=0.0, inplace=False)
                      (2): Linear(in_features=1280, out_features=320, bias=True)
                    )
                  )
                  (attn2): CrossAttention(
                    (to_q): Linear(in_features=320, out_features=320, bias=False)
                    (to_k): Linear(in_features=768, out_features=320, bias=False)
                    (to_v): Linear(in_features=768, out_features=320, bias=False)
                    (to_out): Sequential(
                      (0): Linear(in_features=320, out_features=320, bias=True)
                      (1): Dropout(p=0.0, inplace=False)
                    )
                  )
                  (norm1): LayerNorm((320,), eps=1e-05, elementwise_affine=True)
                  (norm2): LayerNorm((320,), eps=1e-05, elementwise_affine=True)
                  (norm3): LayerNorm((320,), eps=1e-05, elementwise_affine=True)
                )
              )
              (proj_out): Conv2d(320, 320, kernel_size=(1, 1), stride=(1, 1))
            )
          )
        )
        (out): Sequential(
          (0): GroupNorm32(32, 320, eps=1e-05, affine=True)
          (1): SiLU()
          (2): Conv2d(320, 4, kernel_size=(3, 3), stride=(1, 1), padding=(1, 1))
        )
      )
    )
  )
  (sd_model): LatentDiffusion(
    (model): None
    (first_stage_model): None
  )
  (text_adapter): Linear(in_features=512, out_features=768, bias=True)
  (clip_adapter): Linear(in_features=512, out_features=512, bias=True)
  (transformer): DIFFHOI_S_Transformer(
    (encoder): TransformerEncoder(
      (layers): ModuleList(
        (0): TransformerEncoderLayer(
          (self_attn): MultiheadAttention(
            (out_proj): NonDynamicallyQuantizableLinear(in_features=256, out_features=256, bias=True)
          )
          (linear1): Linear(in_features=256, out_features=2048, bias=True)
          (dropout): Dropout(p=0.1, inplace=False)
          (linear2): Linear(in_features=2048, out_features=256, bias=True)
          (norm1): LayerNorm((256,), eps=1e-05, elementwise_affine=True)
          (norm2): LayerNorm((256,), eps=1e-05, elementwise_affine=True)
          (dropout1): Dropout(p=0.1, inplace=False)
          (dropout2): Dropout(p=0.1, inplace=False)
        )
        (1): TransformerEncoderLayer(
          (self_attn): MultiheadAttention(
            (out_proj): NonDynamicallyQuantizableLinear(in_features=256, out_features=256, bias=True)
          )
          (linear1): Linear(in_features=256, out_features=2048, bias=True)
          (dropout): Dropout(p=0.1, inplace=False)
          (linear2): Linear(in_features=2048, out_features=256, bias=True)
          (norm1): LayerNorm((256,), eps=1e-05, elementwise_affine=True)
          (norm2): LayerNorm((256,), eps=1e-05, elementwise_affine=True)
          (dropout1): Dropout(p=0.1, inplace=False)
          (dropout2): Dropout(p=0.1, inplace=False)
        )
        (2): TransformerEncoderLayer(
          (self_attn): MultiheadAttention(
            (out_proj): NonDynamicallyQuantizableLinear(in_features=256, out_features=256, bias=True)
          )
          (linear1): Linear(in_features=256, out_features=2048, bias=True)
          (dropout): Dropout(p=0.1, inplace=False)
          (linear2): Linear(in_features=2048, out_features=256, bias=True)
          (norm1): LayerNorm((256,), eps=1e-05, elementwise_affine=True)
          (norm2): LayerNorm((256,), eps=1e-05, elementwise_affine=True)
          (dropout1): Dropout(p=0.1, inplace=False)
          (dropout2): Dropout(p=0.1, inplace=False)
        )
        (3): TransformerEncoderLayer(
          (self_attn): MultiheadAttention(
            (out_proj): NonDynamicallyQuantizableLinear(in_features=256, out_features=256, bias=True)
          )
          (linear1): Linear(in_features=256, out_features=2048, bias=True)
          (dropout): Dropout(p=0.1, inplace=False)
          (linear2): Linear(in_features=2048, out_features=256, bias=True)
          (norm1): LayerNorm((256,), eps=1e-05, elementwise_affine=True)
          (norm2): LayerNorm((256,), eps=1e-05, elementwise_affine=True)
          (dropout1): Dropout(p=0.1, inplace=False)
          (dropout2): Dropout(p=0.1, inplace=False)
        )
        (4): TransformerEncoderLayer(
          (self_attn): MultiheadAttention(
            (out_proj): NonDynamicallyQuantizableLinear(in_features=256, out_features=256, bias=True)
          )
          (linear1): Linear(in_features=256, out_features=2048, bias=True)
          (dropout): Dropout(p=0.1, inplace=False)
          (linear2): Linear(in_features=2048, out_features=256, bias=True)
          (norm1): LayerNorm((256,), eps=1e-05, elementwise_affine=True)
          (norm2): LayerNorm((256,), eps=1e-05, elementwise_affine=True)
          (dropout1): Dropout(p=0.1, inplace=False)
          (dropout2): Dropout(p=0.1, inplace=False)
        )
        (5): TransformerEncoderLayer(
          (self_attn): MultiheadAttention(
            (out_proj): NonDynamicallyQuantizableLinear(in_features=256, out_features=256, bias=True)
          )
          (linear1): Linear(in_features=256, out_features=2048, bias=True)
          (dropout): Dropout(p=0.1, inplace=False)
          (linear2): Linear(in_features=2048, out_features=256, bias=True)
          (norm1): LayerNorm((256,), eps=1e-05, elementwise_affine=True)
          (norm2): LayerNorm((256,), eps=1e-05, elementwise_affine=True)
          (dropout1): Dropout(p=0.1, inplace=False)
          (dropout2): Dropout(p=0.1, inplace=False)
        )
      )
    )
    (instance_decoder): TransformerDecoder(
      (layers): ModuleList(
        (0): TransformerDecoderLayer(
          (self_attn): MultiheadAttention(
            (out_proj): NonDynamicallyQuantizableLinear(in_features=256, out_features=256, bias=True)
          )
          (multihead_attn): MultiheadAttention(
            (out_proj): NonDynamicallyQuantizableLinear(in_features=256, out_features=256, bias=True)
          )
          (linear1): Linear(in_features=256, out_features=2048, bias=True)
          (dropout): Dropout(p=0.1, inplace=False)
          (linear2): Linear(in_features=2048, out_features=256, bias=True)
          (norm1): LayerNorm((256,), eps=1e-05, elementwise_affine=True)
          (norm2): LayerNorm((256,), eps=1e-05, elementwise_affine=True)
          (norm3): LayerNorm((256,), eps=1e-05, elementwise_affine=True)
          (dropout1): Dropout(p=0.1, inplace=False)
          (dropout2): Dropout(p=0.1, inplace=False)
          (dropout3): Dropout(p=0.1, inplace=False)
        )
        (1): TransformerDecoderLayer(
          (self_attn): MultiheadAttention(
            (out_proj): NonDynamicallyQuantizableLinear(in_features=256, out_features=256, bias=True)
          )
          (multihead_attn): MultiheadAttention(
            (out_proj): NonDynamicallyQuantizableLinear(in_features=256, out_features=256, bias=True)
          )
          (linear1): Linear(in_features=256, out_features=2048, bias=True)
          (dropout): Dropout(p=0.1, inplace=False)
          (linear2): Linear(in_features=2048, out_features=256, bias=True)
          (norm1): LayerNorm((256,), eps=1e-05, elementwise_affine=True)
          (norm2): LayerNorm((256,), eps=1e-05, elementwise_affine=True)
          (norm3): LayerNorm((256,), eps=1e-05, elementwise_affine=True)
          (dropout1): Dropout(p=0.1, inplace=False)
          (dropout2): Dropout(p=0.1, inplace=False)
          (dropout3): Dropout(p=0.1, inplace=False)
        )
        (2): TransformerDecoderLayer(
          (self_attn): MultiheadAttention(
            (out_proj): NonDynamicallyQuantizableLinear(in_features=256, out_features=256, bias=True)
          )
          (multihead_attn): MultiheadAttention(
            (out_proj): NonDynamicallyQuantizableLinear(in_features=256, out_features=256, bias=True)
          )
          (linear1): Linear(in_features=256, out_features=2048, bias=True)
          (dropout): Dropout(p=0.1, inplace=False)
          (linear2): Linear(in_features=2048, out_features=256, bias=True)
          (norm1): LayerNorm((256,), eps=1e-05, elementwise_affine=True)
          (norm2): LayerNorm((256,), eps=1e-05, elementwise_affine=True)
          (norm3): LayerNorm((256,), eps=1e-05, elementwise_affine=True)
          (dropout1): Dropout(p=0.1, inplace=False)
          (dropout2): Dropout(p=0.1, inplace=False)
          (dropout3): Dropout(p=0.1, inplace=False)
        )
      )
      (norm): LayerNorm((256,), eps=1e-05, elementwise_affine=True)
    )
    (interaction_decoder): TransformerDecoder(
      (layers): ModuleList(
        (0): TransformerDecoderLayer(
          (self_attn): MultiheadAttention(
            (out_proj): NonDynamicallyQuantizableLinear(in_features=256, out_features=256, bias=True)
          )
          (multihead_attn): MultiheadAttention(
            (out_proj): NonDynamicallyQuantizableLinear(in_features=256, out_features=256, bias=True)
          )
          (linear1): Linear(in_features=256, out_features=2048, bias=True)
          (dropout): Dropout(p=0.1, inplace=False)
          (linear2): Linear(in_features=2048, out_features=256, bias=True)
          (norm1): LayerNorm((256,), eps=1e-05, elementwise_affine=True)
          (norm2): LayerNorm((256,), eps=1e-05, elementwise_affine=True)
          (norm3): LayerNorm((256,), eps=1e-05, elementwise_affine=True)
          (dropout1): Dropout(p=0.1, inplace=False)
          (dropout2): Dropout(p=0.1, inplace=False)
          (dropout3): Dropout(p=0.1, inplace=False)
        )
        (1): TransformerDecoderLayer(
          (self_attn): MultiheadAttention(
            (out_proj): NonDynamicallyQuantizableLinear(in_features=256, out_features=256, bias=True)
          )
          (multihead_attn): MultiheadAttention(
            (out_proj): NonDynamicallyQuantizableLinear(in_features=256, out_features=256, bias=True)
          )
          (linear1): Linear(in_features=256, out_features=2048, bias=True)
          (dropout): Dropout(p=0.1, inplace=False)
          (linear2): Linear(in_features=2048, out_features=256, bias=True)
          (norm1): LayerNorm((256,), eps=1e-05, elementwise_affine=True)
          (norm2): LayerNorm((256,), eps=1e-05, elementwise_affine=True)
          (norm3): LayerNorm((256,), eps=1e-05, elementwise_affine=True)
          (dropout1): Dropout(p=0.1, inplace=False)
          (dropout2): Dropout(p=0.1, inplace=False)
          (dropout3): Dropout(p=0.1, inplace=False)
        )
        (2): TransformerDecoderLayer(
          (self_attn): MultiheadAttention(
            (out_proj): NonDynamicallyQuantizableLinear(in_features=256, out_features=256, bias=True)
          )
          (multihead_attn): MultiheadAttention(
            (out_proj): NonDynamicallyQuantizableLinear(in_features=256, out_features=256, bias=True)
          )
          (linear1): Linear(in_features=256, out_features=2048, bias=True)
          (dropout): Dropout(p=0.1, inplace=False)
          (linear2): Linear(in_features=2048, out_features=256, bias=True)
          (norm1): LayerNorm((256,), eps=1e-05, elementwise_affine=True)
          (norm2): LayerNorm((256,), eps=1e-05, elementwise_affine=True)
          (norm3): LayerNorm((256,), eps=1e-05, elementwise_affine=True)
          (dropout1): Dropout(p=0.1, inplace=False)
          (dropout2): Dropout(p=0.1, inplace=False)
          (dropout3): Dropout(p=0.1, inplace=False)
        )
      )
      (norm): LayerNorm((256,), eps=1e-05, elementwise_affine=True)
    )
    (project): Linear(in_features=256, out_features=256, bias=True)
    (laynorm): LayerNorm((256,), eps=256, elementwise_affine=True)
  )
  (query_embed_h): Embedding(64, 256)
  (query_embed_o): Embedding(64, 256)
  (pos_guided_embedd): Embedding(64, 256)
  (hum_bbox_embed): MLP(
    (layers): ModuleList(
      (0): Linear(in_features=256, out_features=256, bias=True)
      (1): Linear(in_features=256, out_features=256, bias=True)
      (2): Linear(in_features=256, out_features=4, bias=True)
    )
  )
  (obj_bbox_embed): MLP(
    (layers): ModuleList(
      (0): Linear(in_features=256, out_features=256, bias=True)
      (1): Linear(in_features=256, out_features=256, bias=True)
      (2): Linear(in_features=256, out_features=4, bias=True)
    )
  )
  (input_proj): Conv2d(2048, 256, kernel_size=(1, 1), stride=(1, 1))
  (backbone): Joiner(
    (0): Backbone(
      (body): IntermediateLayerGetter(
        (conv1): Conv2d(3, 64, kernel_size=(7, 7), stride=(2, 2), padding=(3, 3), bias=False)
        (bn1): FrozenBatchNorm2d()
        (relu): ReLU(inplace=True)
        (maxpool): MaxPool2d(kernel_size=3, stride=2, padding=1, dilation=1, ceil_mode=False)
        (layer1): Sequential(
          (0): Bottleneck(
            (conv1): Conv2d(64, 64, kernel_size=(1, 1), stride=(1, 1), bias=False)
            (bn1): FrozenBatchNorm2d()
            (conv2): Conv2d(64, 64, kernel_size=(3, 3), stride=(1, 1), padding=(1, 1), bias=False)
            (bn2): FrozenBatchNorm2d()
            (conv3): Conv2d(64, 256, kernel_size=(1, 1), stride=(1, 1), bias=False)
            (bn3): FrozenBatchNorm2d()
            (relu): ReLU(inplace=True)
            (downsample): Sequential(
              (0): Conv2d(64, 256, kernel_size=(1, 1), stride=(1, 1), bias=False)
              (1): FrozenBatchNorm2d()
            )
          )
          (1): Bottleneck(
            (conv1): Conv2d(256, 64, kernel_size=(1, 1), stride=(1, 1), bias=False)
            (bn1): FrozenBatchNorm2d()
            (conv2): Conv2d(64, 64, kernel_size=(3, 3), stride=(1, 1), padding=(1, 1), bias=False)
            (bn2): FrozenBatchNorm2d()
            (conv3): Conv2d(64, 256, kernel_size=(1, 1), stride=(1, 1), bias=False)
            (bn3): FrozenBatchNorm2d()
            (relu): ReLU(inplace=True)
          )
          (2): Bottleneck(
            (conv1): Conv2d(256, 64, kernel_size=(1, 1), stride=(1, 1), bias=False)
            (bn1): FrozenBatchNorm2d()
            (conv2): Conv2d(64, 64, kernel_size=(3, 3), stride=(1, 1), padding=(1, 1), bias=False)
            (bn2): FrozenBatchNorm2d()
            (conv3): Conv2d(64, 256, kernel_size=(1, 1), stride=(1, 1), bias=False)
            (bn3): FrozenBatchNorm2d()
            (relu): ReLU(inplace=True)
          )
        )
        (layer2): Sequential(
          (0): Bottleneck(
            (conv1): Conv2d(256, 128, kernel_size=(1, 1), stride=(1, 1), bias=False)
            (bn1): FrozenBatchNorm2d()
            (conv2): Conv2d(128, 128, kernel_size=(3, 3), stride=(2, 2), padding=(1, 1), bias=False)
            (bn2): FrozenBatchNorm2d()
            (conv3): Conv2d(128, 512, kernel_size=(1, 1), stride=(1, 1), bias=False)
            (bn3): FrozenBatchNorm2d()
            (relu): ReLU(inplace=True)
            (downsample): Sequential(
              (0): Conv2d(256, 512, kernel_size=(1, 1), stride=(2, 2), bias=False)
              (1): FrozenBatchNorm2d()
            )
          )
          (1): Bottleneck(
            (conv1): Conv2d(512, 128, kernel_size=(1, 1), stride=(1, 1), bias=False)
            (bn1): FrozenBatchNorm2d()
            (conv2): Conv2d(128, 128, kernel_size=(3, 3), stride=(1, 1), padding=(1, 1), bias=False)
            (bn2): FrozenBatchNorm2d()
            (conv3): Conv2d(128, 512, kernel_size=(1, 1), stride=(1, 1), bias=False)
            (bn3): FrozenBatchNorm2d()
            (relu): ReLU(inplace=True)
          )
          (2): Bottleneck(
            (conv1): Conv2d(512, 128, kernel_size=(1, 1), stride=(1, 1), bias=False)
            (bn1): FrozenBatchNorm2d()
            (conv2): Conv2d(128, 128, kernel_size=(3, 3), stride=(1, 1), padding=(1, 1), bias=False)
            (bn2): FrozenBatchNorm2d()
            (conv3): Conv2d(128, 512, kernel_size=(1, 1), stride=(1, 1), bias=False)
            (bn3): FrozenBatchNorm2d()
            (relu): ReLU(inplace=True)
          )
          (3): Bottleneck(
            (conv1): Conv2d(512, 128, kernel_size=(1, 1), stride=(1, 1), bias=False)
            (bn1): FrozenBatchNorm2d()
            (conv2): Conv2d(128, 128, kernel_size=(3, 3), stride=(1, 1), padding=(1, 1), bias=False)
            (bn2): FrozenBatchNorm2d()
            (conv3): Conv2d(128, 512, kernel_size=(1, 1), stride=(1, 1), bias=False)
            (bn3): FrozenBatchNorm2d()
            (relu): ReLU(inplace=True)
          )
        )
        (layer3): Sequential(
          (0): Bottleneck(
            (conv1): Conv2d(512, 256, kernel_size=(1, 1), stride=(1, 1), bias=False)
            (bn1): FrozenBatchNorm2d()
            (conv2): Conv2d(256, 256, kernel_size=(3, 3), stride=(2, 2), padding=(1, 1), bias=False)
            (bn2): FrozenBatchNorm2d()
            (conv3): Conv2d(256, 1024, kernel_size=(1, 1), stride=(1, 1), bias=False)
            (bn3): FrozenBatchNorm2d()
            (relu): ReLU(inplace=True)
            (downsample): Sequential(
              (0): Conv2d(512, 1024, kernel_size=(1, 1), stride=(2, 2), bias=False)
              (1): FrozenBatchNorm2d()
            )
          )
          (1): Bottleneck(
            (conv1): Conv2d(1024, 256, kernel_size=(1, 1), stride=(1, 1), bias=False)
            (bn1): FrozenBatchNorm2d()
            (conv2): Conv2d(256, 256, kernel_size=(3, 3), stride=(1, 1), padding=(1, 1), bias=False)
            (bn2): FrozenBatchNorm2d()
            (conv3): Conv2d(256, 1024, kernel_size=(1, 1), stride=(1, 1), bias=False)
            (bn3): FrozenBatchNorm2d()
            (relu): ReLU(inplace=True)
          )
          (2): Bottleneck(
            (conv1): Conv2d(1024, 256, kernel_size=(1, 1), stride=(1, 1), bias=False)
            (bn1): FrozenBatchNorm2d()
            (conv2): Conv2d(256, 256, kernel_size=(3, 3), stride=(1, 1), padding=(1, 1), bias=False)
            (bn2): FrozenBatchNorm2d()
            (conv3): Conv2d(256, 1024, kernel_size=(1, 1), stride=(1, 1), bias=False)
            (bn3): FrozenBatchNorm2d()
            (relu): ReLU(inplace=True)
          )
          (3): Bottleneck(
            (conv1): Conv2d(1024, 256, kernel_size=(1, 1), stride=(1, 1), bias=False)
            (bn1): FrozenBatchNorm2d()
            (conv2): Conv2d(256, 256, kernel_size=(3, 3), stride=(1, 1), padding=(1, 1), bias=False)
            (bn2): FrozenBatchNorm2d()
            (conv3): Conv2d(256, 1024, kernel_size=(1, 1), stride=(1, 1), bias=False)
            (bn3): FrozenBatchNorm2d()
            (relu): ReLU(inplace=True)
          )
          (4): Bottleneck(
            (conv1): Conv2d(1024, 256, kernel_size=(1, 1), stride=(1, 1), bias=False)
            (bn1): FrozenBatchNorm2d()
            (conv2): Conv2d(256, 256, kernel_size=(3, 3), stride=(1, 1), padding=(1, 1), bias=False)
            (bn2): FrozenBatchNorm2d()
            (conv3): Conv2d(256, 1024, kernel_size=(1, 1), stride=(1, 1), bias=False)
            (bn3): FrozenBatchNorm2d()
            (relu): ReLU(inplace=True)
          )
          (5): Bottleneck(
            (conv1): Conv2d(1024, 256, kernel_size=(1, 1), stride=(1, 1), bias=False)
            (bn1): FrozenBatchNorm2d()
            (conv2): Conv2d(256, 256, kernel_size=(3, 3), stride=(1, 1), padding=(1, 1), bias=False)
            (bn2): FrozenBatchNorm2d()
            (conv3): Conv2d(256, 1024, kernel_size=(1, 1), stride=(1, 1), bias=False)
            (bn3): FrozenBatchNorm2d()
            (relu): ReLU(inplace=True)
          )
        )
        (layer4): Sequential(
          (0): Bottleneck(
            (conv1): Conv2d(1024, 512, kernel_size=(1, 1), stride=(1, 1), bias=False)
            (bn1): FrozenBatchNorm2d()
            (conv2): Conv2d(512, 512, kernel_size=(3, 3), stride=(2, 2), padding=(1, 1), bias=False)
            (bn2): FrozenBatchNorm2d()
            (conv3): Conv2d(512, 2048, kernel_size=(1, 1), stride=(1, 1), bias=False)
            (bn3): FrozenBatchNorm2d()
            (relu): ReLU(inplace=True)
            (downsample): Sequential(
              (0): Conv2d(1024, 2048, kernel_size=(1, 1), stride=(2, 2), bias=False)
              (1): FrozenBatchNorm2d()
            )
          )
          (1): Bottleneck(
            (conv1): Conv2d(2048, 512, kernel_size=(1, 1), stride=(1, 1), bias=False)
            (bn1): FrozenBatchNorm2d()
            (conv2): Conv2d(512, 512, kernel_size=(3, 3), stride=(1, 1), padding=(1, 1), bias=False)
            (bn2): FrozenBatchNorm2d()
            (conv3): Conv2d(512, 2048, kernel_size=(1, 1), stride=(1, 1), bias=False)
            (bn3): FrozenBatchNorm2d()
            (relu): ReLU(inplace=True)
          )
          (2): Bottleneck(
            (conv1): Conv2d(2048, 512, kernel_size=(1, 1), stride=(1, 1), bias=False)
            (bn1): FrozenBatchNorm2d()
            (conv2): Conv2d(512, 512, kernel_size=(3, 3), stride=(1, 1), padding=(1, 1), bias=False)
            (bn2): FrozenBatchNorm2d()
            (conv3): Conv2d(512, 2048, kernel_size=(1, 1), stride=(1, 1), bias=False)
            (bn3): FrozenBatchNorm2d()
            (relu): ReLU(inplace=True)
          )
        )
      )
    )
    (1): PositionEmbeddingSine()
  )
  (image_adapter): Conv2d(1280, 256, kernel_size=(1, 1), stride=(1, 1))
  (hoi_class_fc): Sequential(
    (0): Linear(in_features=256, out_features=512, bias=True)
    (1): LayerNorm((512,), eps=1e-05, elementwise_affine=True)
  )
  (visual_projection): Linear(in_features=512, out_features=600, bias=True)
  (obj_class_fc): Sequential(
    (0): Linear(in_features=256, out_features=512, bias=True)
    (1): LayerNorm((512,), eps=1e-05, elementwise_affine=True)
  )
  (obj_visual_projection): Linear(in_features=512, out_features=81, bias=True)
  (clip_model): CLIP(
    (visual): VisionTransformer(
      (conv1): Conv2d(3, 768, kernel_size=(32, 32), stride=(32, 32), bias=False)
      (ln_pre): LayerNorm((768,), eps=1e-05, elementwise_affine=True)
      (transformer): Transformer(
        (resblocks): Sequential(
          (0): ResidualAttentionBlock(
            (attn): MultiheadAttention(
              (out_proj): NonDynamicallyQuantizableLinear(in_features=768, out_features=768, bias=True)
            )
            (ln_1): LayerNorm((768,), eps=1e-05, elementwise_affine=True)
            (mlp): Sequential(
              (c_fc): Linear(in_features=768, out_features=3072, bias=True)
              (gelu): QuickGELU()
              (c_proj): Linear(in_features=3072, out_features=768, bias=True)
            )
            (ln_2): LayerNorm((768,), eps=1e-05, elementwise_affine=True)
          )
          (1): ResidualAttentionBlock(
            (attn): MultiheadAttention(
              (out_proj): NonDynamicallyQuantizableLinear(in_features=768, out_features=768, bias=True)
            )
            (ln_1): LayerNorm((768,), eps=1e-05, elementwise_affine=True)
            (mlp): Sequential(
              (c_fc): Linear(in_features=768, out_features=3072, bias=True)
              (gelu): QuickGELU()
              (c_proj): Linear(in_features=3072, out_features=768, bias=True)
            )
            (ln_2): LayerNorm((768,), eps=1e-05, elementwise_affine=True)
          )
          (2): ResidualAttentionBlock(
            (attn): MultiheadAttention(
              (out_proj): NonDynamicallyQuantizableLinear(in_features=768, out_features=768, bias=True)
            )
            (ln_1): LayerNorm((768,), eps=1e-05, elementwise_affine=True)
            (mlp): Sequential(
              (c_fc): Linear(in_features=768, out_features=3072, bias=True)
              (gelu): QuickGELU()
              (c_proj): Linear(in_features=3072, out_features=768, bias=True)
            )
            (ln_2): LayerNorm((768,), eps=1e-05, elementwise_affine=True)
          )
          (3): ResidualAttentionBlock(
            (attn): MultiheadAttention(
              (out_proj): NonDynamicallyQuantizableLinear(in_features=768, out_features=768, bias=True)
            )
            (ln_1): LayerNorm((768,), eps=1e-05, elementwise_affine=True)
            (mlp): Sequential(
              (c_fc): Linear(in_features=768, out_features=3072, bias=True)
              (gelu): QuickGELU()
              (c_proj): Linear(in_features=3072, out_features=768, bias=True)
            )
            (ln_2): LayerNorm((768,), eps=1e-05, elementwise_affine=True)
          )
          (4): ResidualAttentionBlock(
            (attn): MultiheadAttention(
              (out_proj): NonDynamicallyQuantizableLinear(in_features=768, out_features=768, bias=True)
            )
            (ln_1): LayerNorm((768,), eps=1e-05, elementwise_affine=True)
            (mlp): Sequential(
              (c_fc): Linear(in_features=768, out_features=3072, bias=True)
              (gelu): QuickGELU()
              (c_proj): Linear(in_features=3072, out_features=768, bias=True)
            )
            (ln_2): LayerNorm((768,), eps=1e-05, elementwise_affine=True)
          )
          (5): ResidualAttentionBlock(
            (attn): MultiheadAttention(
              (out_proj): NonDynamicallyQuantizableLinear(in_features=768, out_features=768, bias=True)
            )
            (ln_1): LayerNorm((768,), eps=1e-05, elementwise_affine=True)
            (mlp): Sequential(
              (c_fc): Linear(in_features=768, out_features=3072, bias=True)
              (gelu): QuickGELU()
              (c_proj): Linear(in_features=3072, out_features=768, bias=True)
            )
            (ln_2): LayerNorm((768,), eps=1e-05, elementwise_affine=True)
          )
          (6): ResidualAttentionBlock(
            (attn): MultiheadAttention(
              (out_proj): NonDynamicallyQuantizableLinear(in_features=768, out_features=768, bias=True)
            )
            (ln_1): LayerNorm((768,), eps=1e-05, elementwise_affine=True)
            (mlp): Sequential(
              (c_fc): Linear(in_features=768, out_features=3072, bias=True)
              (gelu): QuickGELU()
              (c_proj): Linear(in_features=3072, out_features=768, bias=True)
            )
            (ln_2): LayerNorm((768,), eps=1e-05, elementwise_affine=True)
          )
          (7): ResidualAttentionBlock(
            (attn): MultiheadAttention(
              (out_proj): NonDynamicallyQuantizableLinear(in_features=768, out_features=768, bias=True)
            )
            (ln_1): LayerNorm((768,), eps=1e-05, elementwise_affine=True)
            (mlp): Sequential(
              (c_fc): Linear(in_features=768, out_features=3072, bias=True)
              (gelu): QuickGELU()
              (c_proj): Linear(in_features=3072, out_features=768, bias=True)
            )
            (ln_2): LayerNorm((768,), eps=1e-05, elementwise_affine=True)
          )
          (8): ResidualAttentionBlock(
            (attn): MultiheadAttention(
              (out_proj): NonDynamicallyQuantizableLinear(in_features=768, out_features=768, bias=True)
            )
            (ln_1): LayerNorm((768,), eps=1e-05, elementwise_affine=True)
            (mlp): Sequential(
              (c_fc): Linear(in_features=768, out_features=3072, bias=True)
              (gelu): QuickGELU()
              (c_proj): Linear(in_features=3072, out_features=768, bias=True)
            )
            (ln_2): LayerNorm((768,), eps=1e-05, elementwise_affine=True)
          )
          (9): ResidualAttentionBlock(
            (attn): MultiheadAttention(
              (out_proj): NonDynamicallyQuantizableLinear(in_features=768, out_features=768, bias=True)
            )
            (ln_1): LayerNorm((768,), eps=1e-05, elementwise_affine=True)
            (mlp): Sequential(
              (c_fc): Linear(in_features=768, out_features=3072, bias=True)
              (gelu): QuickGELU()
              (c_proj): Linear(in_features=3072, out_features=768, bias=True)
            )
            (ln_2): LayerNorm((768,), eps=1e-05, elementwise_affine=True)
          )
          (10): ResidualAttentionBlock(
            (attn): MultiheadAttention(
              (out_proj): NonDynamicallyQuantizableLinear(in_features=768, out_features=768, bias=True)
            )
            (ln_1): LayerNorm((768,), eps=1e-05, elementwise_affine=True)
            (mlp): Sequential(
              (c_fc): Linear(in_features=768, out_features=3072, bias=True)
              (gelu): QuickGELU()
              (c_proj): Linear(in_features=3072, out_features=768, bias=True)
            )
            (ln_2): LayerNorm((768,), eps=1e-05, elementwise_affine=True)
          )
          (11): ResidualAttentionBlock(
            (attn): MultiheadAttention(
              (out_proj): NonDynamicallyQuantizableLinear(in_features=768, out_features=768, bias=True)
            )
            (ln_1): LayerNorm((768,), eps=1e-05, elementwise_affine=True)
            (mlp): Sequential(
              (c_fc): Linear(in_features=768, out_features=3072, bias=True)
              (gelu): QuickGELU()
              (c_proj): Linear(in_features=3072, out_features=768, bias=True)
            )
            (ln_2): LayerNorm((768,), eps=1e-05, elementwise_affine=True)
          )
        )
      )
      (ln_post): LayerNorm((768,), eps=1e-05, elementwise_affine=True)
    )
    (transformer): Transformer(
      (resblocks): Sequential(
        (0): ResidualAttentionBlock(
          (attn): MultiheadAttention(
            (out_proj): NonDynamicallyQuantizableLinear(in_features=512, out_features=512, bias=True)
          )
          (ln_1): LayerNorm((512,), eps=1e-05, elementwise_affine=True)
          (mlp): Sequential(
            (c_fc): Linear(in_features=512, out_features=2048, bias=True)
            (gelu): QuickGELU()
            (c_proj): Linear(in_features=2048, out_features=512, bias=True)
          )
          (ln_2): LayerNorm((512,), eps=1e-05, elementwise_affine=True)
        )
        (1): ResidualAttentionBlock(
          (attn): MultiheadAttention(
            (out_proj): NonDynamicallyQuantizableLinear(in_features=512, out_features=512, bias=True)
          )
          (ln_1): LayerNorm((512,), eps=1e-05, elementwise_affine=True)
          (mlp): Sequential(
            (c_fc): Linear(in_features=512, out_features=2048, bias=True)
            (gelu): QuickGELU()
            (c_proj): Linear(in_features=2048, out_features=512, bias=True)
          )
          (ln_2): LayerNorm((512,), eps=1e-05, elementwise_affine=True)
        )
        (2): ResidualAttentionBlock(
          (attn): MultiheadAttention(
            (out_proj): NonDynamicallyQuantizableLinear(in_features=512, out_features=512, bias=True)
          )
          (ln_1): LayerNorm((512,), eps=1e-05, elementwise_affine=True)
          (mlp): Sequential(
            (c_fc): Linear(in_features=512, out_features=2048, bias=True)
            (gelu): QuickGELU()
            (c_proj): Linear(in_features=2048, out_features=512, bias=True)
          )
          (ln_2): LayerNorm((512,), eps=1e-05, elementwise_affine=True)
        )
        (3): ResidualAttentionBlock(
          (attn): MultiheadAttention(
            (out_proj): NonDynamicallyQuantizableLinear(in_features=512, out_features=512, bias=True)
          )
          (ln_1): LayerNorm((512,), eps=1e-05, elementwise_affine=True)
          (mlp): Sequential(
            (c_fc): Linear(in_features=512, out_features=2048, bias=True)
            (gelu): QuickGELU()
            (c_proj): Linear(in_features=2048, out_features=512, bias=True)
          )
          (ln_2): LayerNorm((512,), eps=1e-05, elementwise_affine=True)
        )
        (4): ResidualAttentionBlock(
          (attn): MultiheadAttention(
            (out_proj): NonDynamicallyQuantizableLinear(in_features=512, out_features=512, bias=True)
          )
          (ln_1): LayerNorm((512,), eps=1e-05, elementwise_affine=True)
          (mlp): Sequential(
            (c_fc): Linear(in_features=512, out_features=2048, bias=True)
            (gelu): QuickGELU()
            (c_proj): Linear(in_features=2048, out_features=512, bias=True)
          )
          (ln_2): LayerNorm((512,), eps=1e-05, elementwise_affine=True)
        )
        (5): ResidualAttentionBlock(
          (attn): MultiheadAttention(
            (out_proj): NonDynamicallyQuantizableLinear(in_features=512, out_features=512, bias=True)
          )
          (ln_1): LayerNorm((512,), eps=1e-05, elementwise_affine=True)
          (mlp): Sequential(
            (c_fc): Linear(in_features=512, out_features=2048, bias=True)
            (gelu): QuickGELU()
            (c_proj): Linear(in_features=2048, out_features=512, bias=True)
          )
          (ln_2): LayerNorm((512,), eps=1e-05, elementwise_affine=True)
        )
        (6): ResidualAttentionBlock(
          (attn): MultiheadAttention(
            (out_proj): NonDynamicallyQuantizableLinear(in_features=512, out_features=512, bias=True)
          )
          (ln_1): LayerNorm((512,), eps=1e-05, elementwise_affine=True)
          (mlp): Sequential(
            (c_fc): Linear(in_features=512, out_features=2048, bias=True)
            (gelu): QuickGELU()
            (c_proj): Linear(in_features=2048, out_features=512, bias=True)
          )
          (ln_2): LayerNorm((512,), eps=1e-05, elementwise_affine=True)
        )
        (7): ResidualAttentionBlock(
          (attn): MultiheadAttention(
            (out_proj): NonDynamicallyQuantizableLinear(in_features=512, out_features=512, bias=True)
          )
          (ln_1): LayerNorm((512,), eps=1e-05, elementwise_affine=True)
          (mlp): Sequential(
            (c_fc): Linear(in_features=512, out_features=2048, bias=True)
            (gelu): QuickGELU()
            (c_proj): Linear(in_features=2048, out_features=512, bias=True)
          )
          (ln_2): LayerNorm((512,), eps=1e-05, elementwise_affine=True)
        )
        (8): ResidualAttentionBlock(
          (attn): MultiheadAttention(
            (out_proj): NonDynamicallyQuantizableLinear(in_features=512, out_features=512, bias=True)
          )
          (ln_1): LayerNorm((512,), eps=1e-05, elementwise_affine=True)
          (mlp): Sequential(
            (c_fc): Linear(in_features=512, out_features=2048, bias=True)
            (gelu): QuickGELU()
            (c_proj): Linear(in_features=2048, out_features=512, bias=True)
          )
          (ln_2): LayerNorm((512,), eps=1e-05, elementwise_affine=True)
        )
        (9): ResidualAttentionBlock(
          (attn): MultiheadAttention(
            (out_proj): NonDynamicallyQuantizableLinear(in_features=512, out_features=512, bias=True)
          )
          (ln_1): LayerNorm((512,), eps=1e-05, elementwise_affine=True)
          (mlp): Sequential(
            (c_fc): Linear(in_features=512, out_features=2048, bias=True)
            (gelu): QuickGELU()
            (c_proj): Linear(in_features=2048, out_features=512, bias=True)
          )
          (ln_2): LayerNorm((512,), eps=1e-05, elementwise_affine=True)
        )
        (10): ResidualAttentionBlock(
          (attn): MultiheadAttention(
            (out_proj): NonDynamicallyQuantizableLinear(in_features=512, out_features=512, bias=True)
          )
          (ln_1): LayerNorm((512,), eps=1e-05, elementwise_affine=True)
          (mlp): Sequential(
            (c_fc): Linear(in_features=512, out_features=2048, bias=True)
            (gelu): QuickGELU()
            (c_proj): Linear(in_features=2048, out_features=512, bias=True)
          )
          (ln_2): LayerNorm((512,), eps=1e-05, elementwise_affine=True)
        )
        (11): ResidualAttentionBlock(
          (attn): MultiheadAttention(
            (out_proj): NonDynamicallyQuantizableLinear(in_features=512, out_features=512, bias=True)
          )
          (ln_1): LayerNorm((512,), eps=1e-05, elementwise_affine=True)
          (mlp): Sequential(
            (c_fc): Linear(in_features=512, out_features=2048, bias=True)
            (gelu): QuickGELU()
            (c_proj): Linear(in_features=2048, out_features=512, bias=True)
          )
          (ln_2): LayerNorm((512,), eps=1e-05, elementwise_affine=True)
        )
      )
    )
    (token_embedding): Embedding(49408, 512)
    (ln_final): LayerNorm((512,), eps=1e-05, elementwise_affine=True)
  )
)
DiffHOI_S(
  (encoder_vq): AutoencoderKL(
    (encoder): Encoder(
      (conv_in): Conv2d(3, 128, kernel_size=(3, 3), stride=(1, 1), padding=(1, 1))
      (down): ModuleList(
        (0): Module(
          (block): ModuleList(
            (0): ResnetBlock(
              (norm1): GroupNorm(32, 128, eps=1e-06, affine=True)
              (conv1): Conv2d(128, 128, kernel_size=(3, 3), stride=(1, 1), padding=(1, 1))
              (norm2): GroupNorm(32, 128, eps=1e-06, affine=True)
              (dropout): Dropout(p=0.0, inplace=False)
              (conv2): Conv2d(128, 128, kernel_size=(3, 3), stride=(1, 1), padding=(1, 1))
            )
            (1): ResnetBlock(
              (norm1): GroupNorm(32, 128, eps=1e-06, affine=True)
              (conv1): Conv2d(128, 128, kernel_size=(3, 3), stride=(1, 1), padding=(1, 1))
              (norm2): GroupNorm(32, 128, eps=1e-06, affine=True)
              (dropout): Dropout(p=0.0, inplace=False)
              (conv2): Conv2d(128, 128, kernel_size=(3, 3), stride=(1, 1), padding=(1, 1))
            )
          )
          (attn): ModuleList()
          (downsample): Downsample(
            (conv): Conv2d(128, 128, kernel_size=(3, 3), stride=(2, 2))
          )
        )
        (1): Module(
          (block): ModuleList(
            (0): ResnetBlock(
              (norm1): GroupNorm(32, 128, eps=1e-06, affine=True)
              (conv1): Conv2d(128, 256, kernel_size=(3, 3), stride=(1, 1), padding=(1, 1))
              (norm2): GroupNorm(32, 256, eps=1e-06, affine=True)
              (dropout): Dropout(p=0.0, inplace=False)
              (conv2): Conv2d(256, 256, kernel_size=(3, 3), stride=(1, 1), padding=(1, 1))
              (nin_shortcut): Conv2d(128, 256, kernel_size=(1, 1), stride=(1, 1))
            )
            (1): ResnetBlock(
              (norm1): GroupNorm(32, 256, eps=1e-06, affine=True)
              (conv1): Conv2d(256, 256, kernel_size=(3, 3), stride=(1, 1), padding=(1, 1))
              (norm2): GroupNorm(32, 256, eps=1e-06, affine=True)
              (dropout): Dropout(p=0.0, inplace=False)
              (conv2): Conv2d(256, 256, kernel_size=(3, 3), stride=(1, 1), padding=(1, 1))
            )
          )
          (attn): ModuleList()
          (downsample): Downsample(
            (conv): Conv2d(256, 256, kernel_size=(3, 3), stride=(2, 2))
          )
        )
        (2): Module(
          (block): ModuleList(
            (0): ResnetBlock(
              (norm1): GroupNorm(32, 256, eps=1e-06, affine=True)
              (conv1): Conv2d(256, 512, kernel_size=(3, 3), stride=(1, 1), padding=(1, 1))
              (norm2): GroupNorm(32, 512, eps=1e-06, affine=True)
              (dropout): Dropout(p=0.0, inplace=False)
              (conv2): Conv2d(512, 512, kernel_size=(3, 3), stride=(1, 1), padding=(1, 1))
              (nin_shortcut): Conv2d(256, 512, kernel_size=(1, 1), stride=(1, 1))
            )
            (1): ResnetBlock(
              (norm1): GroupNorm(32, 512, eps=1e-06, affine=True)
              (conv1): Conv2d(512, 512, kernel_size=(3, 3), stride=(1, 1), padding=(1, 1))
              (norm2): GroupNorm(32, 512, eps=1e-06, affine=True)
              (dropout): Dropout(p=0.0, inplace=False)
              (conv2): Conv2d(512, 512, kernel_size=(3, 3), stride=(1, 1), padding=(1, 1))
            )
          )
          (attn): ModuleList()
          (downsample): Downsample(
            (conv): Conv2d(512, 512, kernel_size=(3, 3), stride=(2, 2))
          )
        )
        (3): Module(
          (block): ModuleList(
            (0): ResnetBlock(
              (norm1): GroupNorm(32, 512, eps=1e-06, affine=True)
              (conv1): Conv2d(512, 512, kernel_size=(3, 3), stride=(1, 1), padding=(1, 1))
              (norm2): GroupNorm(32, 512, eps=1e-06, affine=True)
              (dropout): Dropout(p=0.0, inplace=False)
              (conv2): Conv2d(512, 512, kernel_size=(3, 3), stride=(1, 1), padding=(1, 1))
            )
            (1): ResnetBlock(
              (norm1): GroupNorm(32, 512, eps=1e-06, affine=True)
              (conv1): Conv2d(512, 512, kernel_size=(3, 3), stride=(1, 1), padding=(1, 1))
              (norm2): GroupNorm(32, 512, eps=1e-06, affine=True)
              (dropout): Dropout(p=0.0, inplace=False)
              (conv2): Conv2d(512, 512, kernel_size=(3, 3), stride=(1, 1), padding=(1, 1))
            )
          )
          (attn): ModuleList()
        )
      )
      (mid): Module(
        (block_1): ResnetBlock(
          (norm1): GroupNorm(32, 512, eps=1e-06, affine=True)
          (conv1): Conv2d(512, 512, kernel_size=(3, 3), stride=(1, 1), padding=(1, 1))
          (norm2): GroupNorm(32, 512, eps=1e-06, affine=True)
          (dropout): Dropout(p=0.0, inplace=False)
          (conv2): Conv2d(512, 512, kernel_size=(3, 3), stride=(1, 1), padding=(1, 1))
        )
        (attn_1): AttnBlock(
          (norm): GroupNorm(32, 512, eps=1e-06, affine=True)
          (q): Conv2d(512, 512, kernel_size=(1, 1), stride=(1, 1))
          (k): Conv2d(512, 512, kernel_size=(1, 1), stride=(1, 1))
          (v): Conv2d(512, 512, kernel_size=(1, 1), stride=(1, 1))
          (proj_out): Conv2d(512, 512, kernel_size=(1, 1), stride=(1, 1))
        )
        (block_2): ResnetBlock(
          (norm1): GroupNorm(32, 512, eps=1e-06, affine=True)
          (conv1): Conv2d(512, 512, kernel_size=(3, 3), stride=(1, 1), padding=(1, 1))
          (norm2): GroupNorm(32, 512, eps=1e-06, affine=True)
          (dropout): Dropout(p=0.0, inplace=False)
          (conv2): Conv2d(512, 512, kernel_size=(3, 3), stride=(1, 1), padding=(1, 1))
        )
      )
      (norm_out): GroupNorm(32, 512, eps=1e-06, affine=True)
      (conv_out): Conv2d(512, 8, kernel_size=(3, 3), stride=(1, 1), padding=(1, 1))
    )
    (loss): Identity()
    (quant_conv): Conv2d(8, 8, kernel_size=(1, 1), stride=(1, 1))
    (post_quant_conv): Conv2d(4, 4, kernel_size=(1, 1), stride=(1, 1))
  )
  (unet): UNetWrapper(
    (unet): DiffusionWrapper(
      (diffusion_model): UNetModel(
        (time_embed): Sequential(
          (0): Linear(in_features=320, out_features=1280, bias=True)
          (1): SiLU()
          (2): Linear(in_features=1280, out_features=1280, bias=True)
        )
        (input_blocks): ModuleList(
          (0): TimestepEmbedSequential(
            (0): Conv2d(4, 320, kernel_size=(3, 3), stride=(1, 1), padding=(1, 1))
          )
          (1): TimestepEmbedSequential(
            (0): ResBlock(
              (in_layers): Sequential(
                (0): GroupNorm32(32, 320, eps=1e-05, affine=True)
                (1): SiLU()
                (2): Conv2d(320, 320, kernel_size=(3, 3), stride=(1, 1), padding=(1, 1))
              )
              (h_upd): Identity()
              (x_upd): Identity()
              (emb_layers): Sequential(
                (0): SiLU()
                (1): Linear(in_features=1280, out_features=320, bias=True)
              )
              (out_layers): Sequential(
                (0): GroupNorm32(32, 320, eps=1e-05, affine=True)
                (1): SiLU()
                (2): Dropout(p=0, inplace=False)
                (3): Conv2d(320, 320, kernel_size=(3, 3), stride=(1, 1), padding=(1, 1))
              )
              (skip_connection): Identity()
            )
            (1): SpatialTransformer(
              (norm): GroupNorm(32, 320, eps=1e-06, affine=True)
              (proj_in): Conv2d(320, 320, kernel_size=(1, 1), stride=(1, 1))
              (transformer_blocks): ModuleList(
                (0): BasicTransformerBlock(
                  (attn1): CrossAttention(
                    (to_q): Linear(in_features=320, out_features=320, bias=False)
                    (to_k): Linear(in_features=320, out_features=320, bias=False)
                    (to_v): Linear(in_features=320, out_features=320, bias=False)
                    (to_out): Sequential(
                      (0): Linear(in_features=320, out_features=320, bias=True)
                      (1): Dropout(p=0.0, inplace=False)
                    )
                  )
                  (ff): FeedForward(
                    (net): Sequential(
                      (0): GEGLU(
                        (proj): Linear(in_features=320, out_features=2560, bias=True)
                      )
                      (1): Dropout(p=0.0, inplace=False)
                      (2): Linear(in_features=1280, out_features=320, bias=True)
                    )
                  )
                  (attn2): CrossAttention(
                    (to_q): Linear(in_features=320, out_features=320, bias=False)
                    (to_k): Linear(in_features=768, out_features=320, bias=False)
                    (to_v): Linear(in_features=768, out_features=320, bias=False)
                    (to_out): Sequential(
                      (0): Linear(in_features=320, out_features=320, bias=True)
                      (1): Dropout(p=0.0, inplace=False)
                    )
                  )
                  (norm1): LayerNorm((320,), eps=1e-05, elementwise_affine=True)
                  (norm2): LayerNorm((320,), eps=1e-05, elementwise_affine=True)
                  (norm3): LayerNorm((320,), eps=1e-05, elementwise_affine=True)
                )
              )
              (proj_out): Conv2d(320, 320, kernel_size=(1, 1), stride=(1, 1))
            )
          )
          (2): TimestepEmbedSequential(
            (0): ResBlock(
              (in_layers): Sequential(
                (0): GroupNorm32(32, 320, eps=1e-05, affine=True)
                (1): SiLU()
                (2): Conv2d(320, 320, kernel_size=(3, 3), stride=(1, 1), padding=(1, 1))
              )
              (h_upd): Identity()
              (x_upd): Identity()
              (emb_layers): Sequential(
                (0): SiLU()
                (1): Linear(in_features=1280, out_features=320, bias=True)
              )
              (out_layers): Sequential(
                (0): GroupNorm32(32, 320, eps=1e-05, affine=True)
                (1): SiLU()
                (2): Dropout(p=0, inplace=False)
                (3): Conv2d(320, 320, kernel_size=(3, 3), stride=(1, 1), padding=(1, 1))
              )
              (skip_connection): Identity()
            )
            (1): SpatialTransformer(
              (norm): GroupNorm(32, 320, eps=1e-06, affine=True)
              (proj_in): Conv2d(320, 320, kernel_size=(1, 1), stride=(1, 1))
              (transformer_blocks): ModuleList(
                (0): BasicTransformerBlock(
                  (attn1): CrossAttention(
                    (to_q): Linear(in_features=320, out_features=320, bias=False)
                    (to_k): Linear(in_features=320, out_features=320, bias=False)
                    (to_v): Linear(in_features=320, out_features=320, bias=False)
                    (to_out): Sequential(
                      (0): Linear(in_features=320, out_features=320, bias=True)
                      (1): Dropout(p=0.0, inplace=False)
                    )
                  )
                  (ff): FeedForward(
                    (net): Sequential(
                      (0): GEGLU(
                        (proj): Linear(in_features=320, out_features=2560, bias=True)
                      )
                      (1): Dropout(p=0.0, inplace=False)
                      (2): Linear(in_features=1280, out_features=320, bias=True)
                    )
                  )
                  (attn2): CrossAttention(
                    (to_q): Linear(in_features=320, out_features=320, bias=False)
                    (to_k): Linear(in_features=768, out_features=320, bias=False)
                    (to_v): Linear(in_features=768, out_features=320, bias=False)
                    (to_out): Sequential(
                      (0): Linear(in_features=320, out_features=320, bias=True)
                      (1): Dropout(p=0.0, inplace=False)
                    )
                  )
                  (norm1): LayerNorm((320,), eps=1e-05, elementwise_affine=True)
                  (norm2): LayerNorm((320,), eps=1e-05, elementwise_affine=True)
                  (norm3): LayerNorm((320,), eps=1e-05, elementwise_affine=True)
                )
              )
              (proj_out): Conv2d(320, 320, kernel_size=(1, 1), stride=(1, 1))
            )
          )
          (3): TimestepEmbedSequential(
            (0): Downsample(
              (op): Conv2d(320, 320, kernel_size=(3, 3), stride=(2, 2), padding=(1, 1))
            )
          )
          (4): TimestepEmbedSequential(
            (0): ResBlock(
              (in_layers): Sequential(
                (0): GroupNorm32(32, 320, eps=1e-05, affine=True)
                (1): SiLU()
                (2): Conv2d(320, 640, kernel_size=(3, 3), stride=(1, 1), padding=(1, 1))
              )
              (h_upd): Identity()
              (x_upd): Identity()
              (emb_layers): Sequential(
                (0): SiLU()
                (1): Linear(in_features=1280, out_features=640, bias=True)
              )
              (out_layers): Sequential(
                (0): GroupNorm32(32, 640, eps=1e-05, affine=True)
                (1): SiLU()
                (2): Dropout(p=0, inplace=False)
                (3): Conv2d(640, 640, kernel_size=(3, 3), stride=(1, 1), padding=(1, 1))
              )
              (skip_connection): Conv2d(320, 640, kernel_size=(1, 1), stride=(1, 1))
            )
            (1): SpatialTransformer(
              (norm): GroupNorm(32, 640, eps=1e-06, affine=True)
              (proj_in): Conv2d(640, 640, kernel_size=(1, 1), stride=(1, 1))
              (transformer_blocks): ModuleList(
                (0): BasicTransformerBlock(
                  (attn1): CrossAttention(
                    (to_q): Linear(in_features=640, out_features=640, bias=False)
                    (to_k): Linear(in_features=640, out_features=640, bias=False)
                    (to_v): Linear(in_features=640, out_features=640, bias=False)
                    (to_out): Sequential(
                      (0): Linear(in_features=640, out_features=640, bias=True)
                      (1): Dropout(p=0.0, inplace=False)
                    )
                  )
                  (ff): FeedForward(
                    (net): Sequential(
                      (0): GEGLU(
                        (proj): Linear(in_features=640, out_features=5120, bias=True)
                      )
                      (1): Dropout(p=0.0, inplace=False)
                      (2): Linear(in_features=2560, out_features=640, bias=True)
                    )
                  )
                  (attn2): CrossAttention(
                    (to_q): Linear(in_features=640, out_features=640, bias=False)
                    (to_k): Linear(in_features=768, out_features=640, bias=False)
                    (to_v): Linear(in_features=768, out_features=640, bias=False)
                    (to_out): Sequential(
                      (0): Linear(in_features=640, out_features=640, bias=True)
                      (1): Dropout(p=0.0, inplace=False)
                    )
                  )
                  (norm1): LayerNorm((640,), eps=1e-05, elementwise_affine=True)
                  (norm2): LayerNorm((640,), eps=1e-05, elementwise_affine=True)
                  (norm3): LayerNorm((640,), eps=1e-05, elementwise_affine=True)
                )
              )
              (proj_out): Conv2d(640, 640, kernel_size=(1, 1), stride=(1, 1))
            )
          )
          (5): TimestepEmbedSequential(
            (0): ResBlock(
              (in_layers): Sequential(
                (0): GroupNorm32(32, 640, eps=1e-05, affine=True)
                (1): SiLU()
                (2): Conv2d(640, 640, kernel_size=(3, 3), stride=(1, 1), padding=(1, 1))
              )
              (h_upd): Identity()
              (x_upd): Identity()
              (emb_layers): Sequential(
                (0): SiLU()
                (1): Linear(in_features=1280, out_features=640, bias=True)
              )
              (out_layers): Sequential(
                (0): GroupNorm32(32, 640, eps=1e-05, affine=True)
                (1): SiLU()
                (2): Dropout(p=0, inplace=False)
                (3): Conv2d(640, 640, kernel_size=(3, 3), stride=(1, 1), padding=(1, 1))
              )
              (skip_connection): Identity()
            )
            (1): SpatialTransformer(
              (norm): GroupNorm(32, 640, eps=1e-06, affine=True)
              (proj_in): Conv2d(640, 640, kernel_size=(1, 1), stride=(1, 1))
              (transformer_blocks): ModuleList(
                (0): BasicTransformerBlock(
                  (attn1): CrossAttention(
                    (to_q): Linear(in_features=640, out_features=640, bias=False)
                    (to_k): Linear(in_features=640, out_features=640, bias=False)
                    (to_v): Linear(in_features=640, out_features=640, bias=False)
                    (to_out): Sequential(
                      (0): Linear(in_features=640, out_features=640, bias=True)
                      (1): Dropout(p=0.0, inplace=False)
                    )
                  )
                  (ff): FeedForward(
                    (net): Sequential(
                      (0): GEGLU(
                        (proj): Linear(in_features=640, out_features=5120, bias=True)
                      )
                      (1): Dropout(p=0.0, inplace=False)
                      (2): Linear(in_features=2560, out_features=640, bias=True)
                    )
                  )
                  (attn2): CrossAttention(
                    (to_q): Linear(in_features=640, out_features=640, bias=False)
                    (to_k): Linear(in_features=768, out_features=640, bias=False)
                    (to_v): Linear(in_features=768, out_features=640, bias=False)
                    (to_out): Sequential(
                      (0): Linear(in_features=640, out_features=640, bias=True)
                      (1): Dropout(p=0.0, inplace=False)
                    )
                  )
                  (norm1): LayerNorm((640,), eps=1e-05, elementwise_affine=True)
                  (norm2): LayerNorm((640,), eps=1e-05, elementwise_affine=True)
                  (norm3): LayerNorm((640,), eps=1e-05, elementwise_affine=True)
                )
              )
              (proj_out): Conv2d(640, 640, kernel_size=(1, 1), stride=(1, 1))
            )
          )
          (6): TimestepEmbedSequential(
            (0): Downsample(
              (op): Conv2d(640, 640, kernel_size=(3, 3), stride=(2, 2), padding=(1, 1))
            )
          )
          (7): TimestepEmbedSequential(
            (0): ResBlock(
              (in_layers): Sequential(
                (0): GroupNorm32(32, 640, eps=1e-05, affine=True)
                (1): SiLU()
                (2): Conv2d(640, 1280, kernel_size=(3, 3), stride=(1, 1), padding=(1, 1))
              )
              (h_upd): Identity()
              (x_upd): Identity()
              (emb_layers): Sequential(
                (0): SiLU()
                (1): Linear(in_features=1280, out_features=1280, bias=True)
              )
              (out_layers): Sequential(
                (0): GroupNorm32(32, 1280, eps=1e-05, affine=True)
                (1): SiLU()
                (2): Dropout(p=0, inplace=False)
                (3): Conv2d(1280, 1280, kernel_size=(3, 3), stride=(1, 1), padding=(1, 1))
              )
              (skip_connection): Conv2d(640, 1280, kernel_size=(1, 1), stride=(1, 1))
            )
            (1): SpatialTransformer(
              (norm): GroupNorm(32, 1280, eps=1e-06, affine=True)
              (proj_in): Conv2d(1280, 1280, kernel_size=(1, 1), stride=(1, 1))
              (transformer_blocks): ModuleList(
                (0): BasicTransformerBlock(
                  (attn1): CrossAttention(
                    (to_q): Linear(in_features=1280, out_features=1280, bias=False)
                    (to_k): Linear(in_features=1280, out_features=1280, bias=False)
                    (to_v): Linear(in_features=1280, out_features=1280, bias=False)
                    (to_out): Sequential(
                      (0): Linear(in_features=1280, out_features=1280, bias=True)
                      (1): Dropout(p=0.0, inplace=False)
                    )
                  )
                  (ff): FeedForward(
                    (net): Sequential(
                      (0): GEGLU(
                        (proj): Linear(in_features=1280, out_features=10240, bias=True)
                      )
                      (1): Dropout(p=0.0, inplace=False)
                      (2): Linear(in_features=5120, out_features=1280, bias=True)
                    )
                  )
                  (attn2): CrossAttention(
                    (to_q): Linear(in_features=1280, out_features=1280, bias=False)
                    (to_k): Linear(in_features=768, out_features=1280, bias=False)
                    (to_v): Linear(in_features=768, out_features=1280, bias=False)
                    (to_out): Sequential(
                      (0): Linear(in_features=1280, out_features=1280, bias=True)
                      (1): Dropout(p=0.0, inplace=False)
                    )
                  )
                  (norm1): LayerNorm((1280,), eps=1e-05, elementwise_affine=True)
                  (norm2): LayerNorm((1280,), eps=1e-05, elementwise_affine=True)
                  (norm3): LayerNorm((1280,), eps=1e-05, elementwise_affine=True)
                )
              )
              (proj_out): Conv2d(1280, 1280, kernel_size=(1, 1), stride=(1, 1))
            )
          )
          (8): TimestepEmbedSequential(
            (0): ResBlock(
              (in_layers): Sequential(
                (0): GroupNorm32(32, 1280, eps=1e-05, affine=True)
                (1): SiLU()
                (2): Conv2d(1280, 1280, kernel_size=(3, 3), stride=(1, 1), padding=(1, 1))
              )
              (h_upd): Identity()
              (x_upd): Identity()
              (emb_layers): Sequential(
                (0): SiLU()
                (1): Linear(in_features=1280, out_features=1280, bias=True)
              )
              (out_layers): Sequential(
                (0): GroupNorm32(32, 1280, eps=1e-05, affine=True)
                (1): SiLU()
                (2): Dropout(p=0, inplace=False)
                (3): Conv2d(1280, 1280, kernel_size=(3, 3), stride=(1, 1), padding=(1, 1))
              )
              (skip_connection): Identity()
            )
            (1): SpatialTransformer(
              (norm): GroupNorm(32, 1280, eps=1e-06, affine=True)
              (proj_in): Conv2d(1280, 1280, kernel_size=(1, 1), stride=(1, 1))
              (transformer_blocks): ModuleList(
                (0): BasicTransformerBlock(
                  (attn1): CrossAttention(
                    (to_q): Linear(in_features=1280, out_features=1280, bias=False)
                    (to_k): Linear(in_features=1280, out_features=1280, bias=False)
                    (to_v): Linear(in_features=1280, out_features=1280, bias=False)
                    (to_out): Sequential(
                      (0): Linear(in_features=1280, out_features=1280, bias=True)
                      (1): Dropout(p=0.0, inplace=False)
                    )
                  )
                  (ff): FeedForward(
                    (net): Sequential(
                      (0): GEGLU(
                        (proj): Linear(in_features=1280, out_features=10240, bias=True)
                      )
                      (1): Dropout(p=0.0, inplace=False)
                      (2): Linear(in_features=5120, out_features=1280, bias=True)
                    )
                  )
                  (attn2): CrossAttention(
                    (to_q): Linear(in_features=1280, out_features=1280, bias=False)
                    (to_k): Linear(in_features=768, out_features=1280, bias=False)
                    (to_v): Linear(in_features=768, out_features=1280, bias=False)
                    (to_out): Sequential(
                      (0): Linear(in_features=1280, out_features=1280, bias=True)
                      (1): Dropout(p=0.0, inplace=False)
                    )
                  )
                  (norm1): LayerNorm((1280,), eps=1e-05, elementwise_affine=True)
                  (norm2): LayerNorm((1280,), eps=1e-05, elementwise_affine=True)
                  (norm3): LayerNorm((1280,), eps=1e-05, elementwise_affine=True)
                )
              )
              (proj_out): Conv2d(1280, 1280, kernel_size=(1, 1), stride=(1, 1))
            )
          )
          (9): TimestepEmbedSequential(
            (0): Downsample(
              (op): Conv2d(1280, 1280, kernel_size=(3, 3), stride=(2, 2), padding=(1, 1))
            )
          )
          (10): TimestepEmbedSequential(
            (0): ResBlock(
              (in_layers): Sequential(
                (0): GroupNorm32(32, 1280, eps=1e-05, affine=True)
                (1): SiLU()
                (2): Conv2d(1280, 1280, kernel_size=(3, 3), stride=(1, 1), padding=(1, 1))
              )
              (h_upd): Identity()
              (x_upd): Identity()
              (emb_layers): Sequential(
                (0): SiLU()
                (1): Linear(in_features=1280, out_features=1280, bias=True)
              )
              (out_layers): Sequential(
                (0): GroupNorm32(32, 1280, eps=1e-05, affine=True)
                (1): SiLU()
                (2): Dropout(p=0, inplace=False)
                (3): Conv2d(1280, 1280, kernel_size=(3, 3), stride=(1, 1), padding=(1, 1))
              )
              (skip_connection): Identity()
            )
          )
          (11): TimestepEmbedSequential(
            (0): ResBlock(
              (in_layers): Sequential(
                (0): GroupNorm32(32, 1280, eps=1e-05, affine=True)
                (1): SiLU()
                (2): Conv2d(1280, 1280, kernel_size=(3, 3), stride=(1, 1), padding=(1, 1))
              )
              (h_upd): Identity()
              (x_upd): Identity()
              (emb_layers): Sequential(
                (0): SiLU()
                (1): Linear(in_features=1280, out_features=1280, bias=True)
              )
              (out_layers): Sequential(
                (0): GroupNorm32(32, 1280, eps=1e-05, affine=True)
                (1): SiLU()
                (2): Dropout(p=0, inplace=False)
                (3): Conv2d(1280, 1280, kernel_size=(3, 3), stride=(1, 1), padding=(1, 1))
              )
              (skip_connection): Identity()
            )
          )
        )
        (middle_block): TimestepEmbedSequential(
          (0): ResBlock(
            (in_layers): Sequential(
              (0): GroupNorm32(32, 1280, eps=1e-05, affine=True)
              (1): SiLU()
              (2): Conv2d(1280, 1280, kernel_size=(3, 3), stride=(1, 1), padding=(1, 1))
            )
            (h_upd): Identity()
            (x_upd): Identity()
            (emb_layers): Sequential(
              (0): SiLU()
              (1): Linear(in_features=1280, out_features=1280, bias=True)
            )
            (out_layers): Sequential(
              (0): GroupNorm32(32, 1280, eps=1e-05, affine=True)
              (1): SiLU()
              (2): Dropout(p=0, inplace=False)
              (3): Conv2d(1280, 1280, kernel_size=(3, 3), stride=(1, 1), padding=(1, 1))
            )
            (skip_connection): Identity()
          )
          (1): SpatialTransformer(
            (norm): GroupNorm(32, 1280, eps=1e-06, affine=True)
            (proj_in): Conv2d(1280, 1280, kernel_size=(1, 1), stride=(1, 1))
            (transformer_blocks): ModuleList(
              (0): BasicTransformerBlock(
                (attn1): CrossAttention(
                  (to_q): Linear(in_features=1280, out_features=1280, bias=False)
                  (to_k): Linear(in_features=1280, out_features=1280, bias=False)
                  (to_v): Linear(in_features=1280, out_features=1280, bias=False)
                  (to_out): Sequential(
                    (0): Linear(in_features=1280, out_features=1280, bias=True)
                    (1): Dropout(p=0.0, inplace=False)
                  )
                )
                (ff): FeedForward(
                  (net): Sequential(
                    (0): GEGLU(
                      (proj): Linear(in_features=1280, out_features=10240, bias=True)
                    )
                    (1): Dropout(p=0.0, inplace=False)
                    (2): Linear(in_features=5120, out_features=1280, bias=True)
                  )
                )
                (attn2): CrossAttention(
                  (to_q): Linear(in_features=1280, out_features=1280, bias=False)
                  (to_k): Linear(in_features=768, out_features=1280, bias=False)
                  (to_v): Linear(in_features=768, out_features=1280, bias=False)
                  (to_out): Sequential(
                    (0): Linear(in_features=1280, out_features=1280, bias=True)
                    (1): Dropout(p=0.0, inplace=False)
                  )
                )
                (norm1): LayerNorm((1280,), eps=1e-05, elementwise_affine=True)
                (norm2): LayerNorm((1280,), eps=1e-05, elementwise_affine=True)
                (norm3): LayerNorm((1280,), eps=1e-05, elementwise_affine=True)
              )
            )
            (proj_out): Conv2d(1280, 1280, kernel_size=(1, 1), stride=(1, 1))
          )
          (2): ResBlock(
            (in_layers): Sequential(
              (0): GroupNorm32(32, 1280, eps=1e-05, affine=True)
              (1): SiLU()
              (2): Conv2d(1280, 1280, kernel_size=(3, 3), stride=(1, 1), padding=(1, 1))
            )
            (h_upd): Identity()
            (x_upd): Identity()
            (emb_layers): Sequential(
              (0): SiLU()
              (1): Linear(in_features=1280, out_features=1280, bias=True)
            )
            (out_layers): Sequential(
              (0): GroupNorm32(32, 1280, eps=1e-05, affine=True)
              (1): SiLU()
              (2): Dropout(p=0, inplace=False)
              (3): Conv2d(1280, 1280, kernel_size=(3, 3), stride=(1, 1), padding=(1, 1))
            )
            (skip_connection): Identity()
          )
        )
        (output_blocks): ModuleList(
          (0): TimestepEmbedSequential(
            (0): ResBlock(
              (in_layers): Sequential(
                (0): GroupNorm32(32, 2560, eps=1e-05, affine=True)
                (1): SiLU()
                (2): Conv2d(2560, 1280, kernel_size=(3, 3), stride=(1, 1), padding=(1, 1))
              )
              (h_upd): Identity()
              (x_upd): Identity()
              (emb_layers): Sequential(
                (0): SiLU()
                (1): Linear(in_features=1280, out_features=1280, bias=True)
              )
              (out_layers): Sequential(
                (0): GroupNorm32(32, 1280, eps=1e-05, affine=True)
                (1): SiLU()
                (2): Dropout(p=0, inplace=False)
                (3): Conv2d(1280, 1280, kernel_size=(3, 3), stride=(1, 1), padding=(1, 1))
              )
              (skip_connection): Conv2d(2560, 1280, kernel_size=(1, 1), stride=(1, 1))
            )
          )
          (1): TimestepEmbedSequential(
            (0): ResBlock(
              (in_layers): Sequential(
                (0): GroupNorm32(32, 2560, eps=1e-05, affine=True)
                (1): SiLU()
                (2): Conv2d(2560, 1280, kernel_size=(3, 3), stride=(1, 1), padding=(1, 1))
              )
              (h_upd): Identity()
              (x_upd): Identity()
              (emb_layers): Sequential(
                (0): SiLU()
                (1): Linear(in_features=1280, out_features=1280, bias=True)
              )
              (out_layers): Sequential(
                (0): GroupNorm32(32, 1280, eps=1e-05, affine=True)
                (1): SiLU()
                (2): Dropout(p=0, inplace=False)
                (3): Conv2d(1280, 1280, kernel_size=(3, 3), stride=(1, 1), padding=(1, 1))
              )
              (skip_connection): Conv2d(2560, 1280, kernel_size=(1, 1), stride=(1, 1))
            )
          )
          (2): TimestepEmbedSequential(
            (0): ResBlock(
              (in_layers): Sequential(
                (0): GroupNorm32(32, 2560, eps=1e-05, affine=True)
                (1): SiLU()
                (2): Conv2d(2560, 1280, kernel_size=(3, 3), stride=(1, 1), padding=(1, 1))
              )
              (h_upd): Identity()
              (x_upd): Identity()
              (emb_layers): Sequential(
                (0): SiLU()
                (1): Linear(in_features=1280, out_features=1280, bias=True)
              )
              (out_layers): Sequential(
                (0): GroupNorm32(32, 1280, eps=1e-05, affine=True)
                (1): SiLU()
                (2): Dropout(p=0, inplace=False)
                (3): Conv2d(1280, 1280, kernel_size=(3, 3), stride=(1, 1), padding=(1, 1))
              )
              (skip_connection): Conv2d(2560, 1280, kernel_size=(1, 1), stride=(1, 1))
            )
            (1): Upsample(
              (conv): Conv2d(1280, 1280, kernel_size=(3, 3), stride=(1, 1), padding=(1, 1))
            )
          )
          (3): TimestepEmbedSequential(
            (0): ResBlock(
              (in_layers): Sequential(
                (0): GroupNorm32(32, 2560, eps=1e-05, affine=True)
                (1): SiLU()
                (2): Conv2d(2560, 1280, kernel_size=(3, 3), stride=(1, 1), padding=(1, 1))
              )
              (h_upd): Identity()
              (x_upd): Identity()
              (emb_layers): Sequential(
                (0): SiLU()
                (1): Linear(in_features=1280, out_features=1280, bias=True)
              )
              (out_layers): Sequential(
                (0): GroupNorm32(32, 1280, eps=1e-05, affine=True)
                (1): SiLU()
                (2): Dropout(p=0, inplace=False)
                (3): Conv2d(1280, 1280, kernel_size=(3, 3), stride=(1, 1), padding=(1, 1))
              )
              (skip_connection): Conv2d(2560, 1280, kernel_size=(1, 1), stride=(1, 1))
            )
            (1): SpatialTransformer(
              (norm): GroupNorm(32, 1280, eps=1e-06, affine=True)
              (proj_in): Conv2d(1280, 1280, kernel_size=(1, 1), stride=(1, 1))
              (transformer_blocks): ModuleList(
                (0): BasicTransformerBlock(
                  (attn1): CrossAttention(
                    (to_q): Linear(in_features=1280, out_features=1280, bias=False)
                    (to_k): Linear(in_features=1280, out_features=1280, bias=False)
                    (to_v): Linear(in_features=1280, out_features=1280, bias=False)
                    (to_out): Sequential(
                      (0): Linear(in_features=1280, out_features=1280, bias=True)
                      (1): Dropout(p=0.0, inplace=False)
                    )
                  )
                  (ff): FeedForward(
                    (net): Sequential(
                      (0): GEGLU(
                        (proj): Linear(in_features=1280, out_features=10240, bias=True)
                      )
                      (1): Dropout(p=0.0, inplace=False)
                      (2): Linear(in_features=5120, out_features=1280, bias=True)
                    )
                  )
                  (attn2): CrossAttention(
                    (to_q): Linear(in_features=1280, out_features=1280, bias=False)
                    (to_k): Linear(in_features=768, out_features=1280, bias=False)
                    (to_v): Linear(in_features=768, out_features=1280, bias=False)
                    (to_out): Sequential(
                      (0): Linear(in_features=1280, out_features=1280, bias=True)
                      (1): Dropout(p=0.0, inplace=False)
                    )
                  )
                  (norm1): LayerNorm((1280,), eps=1e-05, elementwise_affine=True)
                  (norm2): LayerNorm((1280,), eps=1e-05, elementwise_affine=True)
                  (norm3): LayerNorm((1280,), eps=1e-05, elementwise_affine=True)
                )
              )
              (proj_out): Conv2d(1280, 1280, kernel_size=(1, 1), stride=(1, 1))
            )
          )
          (4): TimestepEmbedSequential(
            (0): ResBlock(
              (in_layers): Sequential(
                (0): GroupNorm32(32, 2560, eps=1e-05, affine=True)
                (1): SiLU()
                (2): Conv2d(2560, 1280, kernel_size=(3, 3), stride=(1, 1), padding=(1, 1))
              )
              (h_upd): Identity()
              (x_upd): Identity()
              (emb_layers): Sequential(
                (0): SiLU()
                (1): Linear(in_features=1280, out_features=1280, bias=True)
              )
              (out_layers): Sequential(
                (0): GroupNorm32(32, 1280, eps=1e-05, affine=True)
                (1): SiLU()
                (2): Dropout(p=0, inplace=False)
                (3): Conv2d(1280, 1280, kernel_size=(3, 3), stride=(1, 1), padding=(1, 1))
              )
              (skip_connection): Conv2d(2560, 1280, kernel_size=(1, 1), stride=(1, 1))
            )
            (1): SpatialTransformer(
              (norm): GroupNorm(32, 1280, eps=1e-06, affine=True)
              (proj_in): Conv2d(1280, 1280, kernel_size=(1, 1), stride=(1, 1))
              (transformer_blocks): ModuleList(
                (0): BasicTransformerBlock(
                  (attn1): CrossAttention(
                    (to_q): Linear(in_features=1280, out_features=1280, bias=False)
                    (to_k): Linear(in_features=1280, out_features=1280, bias=False)
                    (to_v): Linear(in_features=1280, out_features=1280, bias=False)
                    (to_out): Sequential(
                      (0): Linear(in_features=1280, out_features=1280, bias=True)
                      (1): Dropout(p=0.0, inplace=False)
                    )
                  )
                  (ff): FeedForward(
                    (net): Sequential(
                      (0): GEGLU(
                        (proj): Linear(in_features=1280, out_features=10240, bias=True)
                      )
                      (1): Dropout(p=0.0, inplace=False)
                      (2): Linear(in_features=5120, out_features=1280, bias=True)
                    )
                  )
                  (attn2): CrossAttention(
                    (to_q): Linear(in_features=1280, out_features=1280, bias=False)
                    (to_k): Linear(in_features=768, out_features=1280, bias=False)
                    (to_v): Linear(in_features=768, out_features=1280, bias=False)
                    (to_out): Sequential(
                      (0): Linear(in_features=1280, out_features=1280, bias=True)
                      (1): Dropout(p=0.0, inplace=False)
                    )
                  )
                  (norm1): LayerNorm((1280,), eps=1e-05, elementwise_affine=True)
                  (norm2): LayerNorm((1280,), eps=1e-05, elementwise_affine=True)
                  (norm3): LayerNorm((1280,), eps=1e-05, elementwise_affine=True)
                )
              )
              (proj_out): Conv2d(1280, 1280, kernel_size=(1, 1), stride=(1, 1))
            )
          )
          (5): TimestepEmbedSequential(
            (0): ResBlock(
              (in_layers): Sequential(
                (0): GroupNorm32(32, 1920, eps=1e-05, affine=True)
                (1): SiLU()
                (2): Conv2d(1920, 1280, kernel_size=(3, 3), stride=(1, 1), padding=(1, 1))
              )
              (h_upd): Identity()
              (x_upd): Identity()
              (emb_layers): Sequential(
                (0): SiLU()
                (1): Linear(in_features=1280, out_features=1280, bias=True)
              )
              (out_layers): Sequential(
                (0): GroupNorm32(32, 1280, eps=1e-05, affine=True)
                (1): SiLU()
                (2): Dropout(p=0, inplace=False)
                (3): Conv2d(1280, 1280, kernel_size=(3, 3), stride=(1, 1), padding=(1, 1))
              )
              (skip_connection): Conv2d(1920, 1280, kernel_size=(1, 1), stride=(1, 1))
            )
            (1): SpatialTransformer(
              (norm): GroupNorm(32, 1280, eps=1e-06, affine=True)
              (proj_in): Conv2d(1280, 1280, kernel_size=(1, 1), stride=(1, 1))
              (transformer_blocks): ModuleList(
                (0): BasicTransformerBlock(
                  (attn1): CrossAttention(
                    (to_q): Linear(in_features=1280, out_features=1280, bias=False)
                    (to_k): Linear(in_features=1280, out_features=1280, bias=False)
                    (to_v): Linear(in_features=1280, out_features=1280, bias=False)
                    (to_out): Sequential(
                      (0): Linear(in_features=1280, out_features=1280, bias=True)
                      (1): Dropout(p=0.0, inplace=False)
                    )
                  )
                  (ff): FeedForward(
                    (net): Sequential(
                      (0): GEGLU(
                        (proj): Linear(in_features=1280, out_features=10240, bias=True)
                      )
                      (1): Dropout(p=0.0, inplace=False)
                      (2): Linear(in_features=5120, out_features=1280, bias=True)
                    )
                  )
                  (attn2): CrossAttention(
                    (to_q): Linear(in_features=1280, out_features=1280, bias=False)
                    (to_k): Linear(in_features=768, out_features=1280, bias=False)
                    (to_v): Linear(in_features=768, out_features=1280, bias=False)
                    (to_out): Sequential(
                      (0): Linear(in_features=1280, out_features=1280, bias=True)
                      (1): Dropout(p=0.0, inplace=False)
                    )
                  )
                  (norm1): LayerNorm((1280,), eps=1e-05, elementwise_affine=True)
                  (norm2): LayerNorm((1280,), eps=1e-05, elementwise_affine=True)
                  (norm3): LayerNorm((1280,), eps=1e-05, elementwise_affine=True)
                )
              )
              (proj_out): Conv2d(1280, 1280, kernel_size=(1, 1), stride=(1, 1))
            )
            (2): Upsample(
              (conv): Conv2d(1280, 1280, kernel_size=(3, 3), stride=(1, 1), padding=(1, 1))
            )
          )
          (6): TimestepEmbedSequential(
            (0): ResBlock(
              (in_layers): Sequential(
                (0): GroupNorm32(32, 1920, eps=1e-05, affine=True)
                (1): SiLU()
                (2): Conv2d(1920, 640, kernel_size=(3, 3), stride=(1, 1), padding=(1, 1))
              )
              (h_upd): Identity()
              (x_upd): Identity()
              (emb_layers): Sequential(
                (0): SiLU()
                (1): Linear(in_features=1280, out_features=640, bias=True)
              )
              (out_layers): Sequential(
                (0): GroupNorm32(32, 640, eps=1e-05, affine=True)
                (1): SiLU()
                (2): Dropout(p=0, inplace=False)
                (3): Conv2d(640, 640, kernel_size=(3, 3), stride=(1, 1), padding=(1, 1))
              )
              (skip_connection): Conv2d(1920, 640, kernel_size=(1, 1), stride=(1, 1))
            )
            (1): SpatialTransformer(
              (norm): GroupNorm(32, 640, eps=1e-06, affine=True)
              (proj_in): Conv2d(640, 640, kernel_size=(1, 1), stride=(1, 1))
              (transformer_blocks): ModuleList(
                (0): BasicTransformerBlock(
                  (attn1): CrossAttention(
                    (to_q): Linear(in_features=640, out_features=640, bias=False)
                    (to_k): Linear(in_features=640, out_features=640, bias=False)
                    (to_v): Linear(in_features=640, out_features=640, bias=False)
                    (to_out): Sequential(
                      (0): Linear(in_features=640, out_features=640, bias=True)
                      (1): Dropout(p=0.0, inplace=False)
                    )
                  )
                  (ff): FeedForward(
                    (net): Sequential(
                      (0): GEGLU(
                        (proj): Linear(in_features=640, out_features=5120, bias=True)
                      )
                      (1): Dropout(p=0.0, inplace=False)
                      (2): Linear(in_features=2560, out_features=640, bias=True)
                    )
                  )
                  (attn2): CrossAttention(
                    (to_q): Linear(in_features=640, out_features=640, bias=False)
                    (to_k): Linear(in_features=768, out_features=640, bias=False)
                    (to_v): Linear(in_features=768, out_features=640, bias=False)
                    (to_out): Sequential(
                      (0): Linear(in_features=640, out_features=640, bias=True)
                      (1): Dropout(p=0.0, inplace=False)
                    )
                  )
                  (norm1): LayerNorm((640,), eps=1e-05, elementwise_affine=True)
                  (norm2): LayerNorm((640,), eps=1e-05, elementwise_affine=True)
                  (norm3): LayerNorm((640,), eps=1e-05, elementwise_affine=True)
                )
              )
              (proj_out): Conv2d(640, 640, kernel_size=(1, 1), stride=(1, 1))
            )
          )
          (7): TimestepEmbedSequential(
            (0): ResBlock(
              (in_layers): Sequential(
                (0): GroupNorm32(32, 1280, eps=1e-05, affine=True)
                (1): SiLU()
                (2): Conv2d(1280, 640, kernel_size=(3, 3), stride=(1, 1), padding=(1, 1))
              )
              (h_upd): Identity()
              (x_upd): Identity()
              (emb_layers): Sequential(
                (0): SiLU()
                (1): Linear(in_features=1280, out_features=640, bias=True)
              )
              (out_layers): Sequential(
                (0): GroupNorm32(32, 640, eps=1e-05, affine=True)
                (1): SiLU()
                (2): Dropout(p=0, inplace=False)
                (3): Conv2d(640, 640, kernel_size=(3, 3), stride=(1, 1), padding=(1, 1))
              )
              (skip_connection): Conv2d(1280, 640, kernel_size=(1, 1), stride=(1, 1))
            )
            (1): SpatialTransformer(
              (norm): GroupNorm(32, 640, eps=1e-06, affine=True)
              (proj_in): Conv2d(640, 640, kernel_size=(1, 1), stride=(1, 1))
              (transformer_blocks): ModuleList(
                (0): BasicTransformerBlock(
                  (attn1): CrossAttention(
                    (to_q): Linear(in_features=640, out_features=640, bias=False)
                    (to_k): Linear(in_features=640, out_features=640, bias=False)
                    (to_v): Linear(in_features=640, out_features=640, bias=False)
                    (to_out): Sequential(
                      (0): Linear(in_features=640, out_features=640, bias=True)
                      (1): Dropout(p=0.0, inplace=False)
                    )
                  )
                  (ff): FeedForward(
                    (net): Sequential(
                      (0): GEGLU(
                        (proj): Linear(in_features=640, out_features=5120, bias=True)
                      )
                      (1): Dropout(p=0.0, inplace=False)
                      (2): Linear(in_features=2560, out_features=640, bias=True)
                    )
                  )
                  (attn2): CrossAttention(
                    (to_q): Linear(in_features=640, out_features=640, bias=False)
                    (to_k): Linear(in_features=768, out_features=640, bias=False)
                    (to_v): Linear(in_features=768, out_features=640, bias=False)
                    (to_out): Sequential(
                      (0): Linear(in_features=640, out_features=640, bias=True)
                      (1): Dropout(p=0.0, inplace=False)
                    )
                  )
                  (norm1): LayerNorm((640,), eps=1e-05, elementwise_affine=True)
                  (norm2): LayerNorm((640,), eps=1e-05, elementwise_affine=True)
                  (norm3): LayerNorm((640,), eps=1e-05, elementwise_affine=True)
                )
              )
              (proj_out): Conv2d(640, 640, kernel_size=(1, 1), stride=(1, 1))
            )
          )
          (8): TimestepEmbedSequential(
            (0): ResBlock(
              (in_layers): Sequential(
                (0): GroupNorm32(32, 960, eps=1e-05, affine=True)
                (1): SiLU()
                (2): Conv2d(960, 640, kernel_size=(3, 3), stride=(1, 1), padding=(1, 1))
              )
              (h_upd): Identity()
              (x_upd): Identity()
              (emb_layers): Sequential(
                (0): SiLU()
                (1): Linear(in_features=1280, out_features=640, bias=True)
              )
              (out_layers): Sequential(
                (0): GroupNorm32(32, 640, eps=1e-05, affine=True)
                (1): SiLU()
                (2): Dropout(p=0, inplace=False)
                (3): Conv2d(640, 640, kernel_size=(3, 3), stride=(1, 1), padding=(1, 1))
              )
              (skip_connection): Conv2d(960, 640, kernel_size=(1, 1), stride=(1, 1))
            )
            (1): SpatialTransformer(
              (norm): GroupNorm(32, 640, eps=1e-06, affine=True)
              (proj_in): Conv2d(640, 640, kernel_size=(1, 1), stride=(1, 1))
              (transformer_blocks): ModuleList(
                (0): BasicTransformerBlock(
                  (attn1): CrossAttention(
                    (to_q): Linear(in_features=640, out_features=640, bias=False)
                    (to_k): Linear(in_features=640, out_features=640, bias=False)
                    (to_v): Linear(in_features=640, out_features=640, bias=False)
                    (to_out): Sequential(
                      (0): Linear(in_features=640, out_features=640, bias=True)
                      (1): Dropout(p=0.0, inplace=False)
                    )
                  )
                  (ff): FeedForward(
                    (net): Sequential(
                      (0): GEGLU(
                        (proj): Linear(in_features=640, out_features=5120, bias=True)
                      )
                      (1): Dropout(p=0.0, inplace=False)
                      (2): Linear(in_features=2560, out_features=640, bias=True)
                    )
                  )
                  (attn2): CrossAttention(
                    (to_q): Linear(in_features=640, out_features=640, bias=False)
                    (to_k): Linear(in_features=768, out_features=640, bias=False)
                    (to_v): Linear(in_features=768, out_features=640, bias=False)
                    (to_out): Sequential(
                      (0): Linear(in_features=640, out_features=640, bias=True)
                      (1): Dropout(p=0.0, inplace=False)
                    )
                  )
                  (norm1): LayerNorm((640,), eps=1e-05, elementwise_affine=True)
                  (norm2): LayerNorm((640,), eps=1e-05, elementwise_affine=True)
                  (norm3): LayerNorm((640,), eps=1e-05, elementwise_affine=True)
                )
              )
              (proj_out): Conv2d(640, 640, kernel_size=(1, 1), stride=(1, 1))
            )
            (2): Upsample(
              (conv): Conv2d(640, 640, kernel_size=(3, 3), stride=(1, 1), padding=(1, 1))
            )
          )
          (9): TimestepEmbedSequential(
            (0): ResBlock(
              (in_layers): Sequential(
                (0): GroupNorm32(32, 960, eps=1e-05, affine=True)
                (1): SiLU()
                (2): Conv2d(960, 320, kernel_size=(3, 3), stride=(1, 1), padding=(1, 1))
              )
              (h_upd): Identity()
              (x_upd): Identity()
              (emb_layers): Sequential(
                (0): SiLU()
                (1): Linear(in_features=1280, out_features=320, bias=True)
              )
              (out_layers): Sequential(
                (0): GroupNorm32(32, 320, eps=1e-05, affine=True)
                (1): SiLU()
                (2): Dropout(p=0, inplace=False)
                (3): Conv2d(320, 320, kernel_size=(3, 3), stride=(1, 1), padding=(1, 1))
              )
              (skip_connection): Conv2d(960, 320, kernel_size=(1, 1), stride=(1, 1))
            )
            (1): SpatialTransformer(
              (norm): GroupNorm(32, 320, eps=1e-06, affine=True)
              (proj_in): Conv2d(320, 320, kernel_size=(1, 1), stride=(1, 1))
              (transformer_blocks): ModuleList(
                (0): BasicTransformerBlock(
                  (attn1): CrossAttention(
                    (to_q): Linear(in_features=320, out_features=320, bias=False)
                    (to_k): Linear(in_features=320, out_features=320, bias=False)
                    (to_v): Linear(in_features=320, out_features=320, bias=False)
                    (to_out): Sequential(
                      (0): Linear(in_features=320, out_features=320, bias=True)
                      (1): Dropout(p=0.0, inplace=False)
                    )
                  )
                  (ff): FeedForward(
                    (net): Sequential(
                      (0): GEGLU(
                        (proj): Linear(in_features=320, out_features=2560, bias=True)
                      )
                      (1): Dropout(p=0.0, inplace=False)
                      (2): Linear(in_features=1280, out_features=320, bias=True)
                    )
                  )
                  (attn2): CrossAttention(
                    (to_q): Linear(in_features=320, out_features=320, bias=False)
                    (to_k): Linear(in_features=768, out_features=320, bias=False)
                    (to_v): Linear(in_features=768, out_features=320, bias=False)
                    (to_out): Sequential(
                      (0): Linear(in_features=320, out_features=320, bias=True)
                      (1): Dropout(p=0.0, inplace=False)
                    )
                  )
                  (norm1): LayerNorm((320,), eps=1e-05, elementwise_affine=True)
                  (norm2): LayerNorm((320,), eps=1e-05, elementwise_affine=True)
                  (norm3): LayerNorm((320,), eps=1e-05, elementwise_affine=True)
…
              (in_layers): Sequential(
                (0): GroupNorm32(32, 1280, eps=1e-05, affine=True)
                (1): SiLU()
                (2): Conv2d(1280, 640, kernel_size=(3, 3), stride=(1, 1), padding=(1, 1))
              )
              (h_upd): Identity()
              (x_upd): Identity()
              (emb_layers): Sequential(
                (0): SiLU()
                (1): Linear(in_features=1280, out_features=640, bias=True)
              )
              (out_layers): Sequential(
                (0): GroupNorm32(32, 640, eps=1e-05, affine=True)
                (1): SiLU()
                (2): Dropout(p=0, inplace=False)
                (3): Conv2d(640, 640, kernel_size=(3, 3), stride=(1, 1), padding=(1, 1))
              )
              (skip_connection): Conv2d(1280, 640, kernel_size=(1, 1), stride=(1, 1))
            )
            (1): SpatialTransformer(
              (norm): GroupNorm(32, 640, eps=1e-06, affine=True)
              (proj_in): Conv2d(640, 640, kernel_size=(1, 1), stride=(1, 1))
              (transformer_blocks): ModuleList(
                (0): BasicTransformerBlock(
                  (attn1): CrossAttention(
                    (to_q): Linear(in_features=640, out_features=640, bias=False)
                    (to_k): Linear(in_features=640, out_features=640, bias=False)
                    (to_v): Linear(in_features=640, out_features=640, bias=False)
                    (to_out): Sequential(
                      (0): Linear(in_features=640, out_features=640, bias=True)
                      (1): Dropout(p=0.0, inplace=False)
                    )
                  )
                  (ff): FeedForward(
                    (net): Sequential(
                      (0): GEGLU(
                        (proj): Linear(in_features=640, out_features=5120, bias=True)
                      )
                      (1): Dropout(p=0.0, inplace=False)
                      (2): Linear(in_features=2560, out_features=640, bias=True)
                    )
                  )
                  (attn2): CrossAttention(
                    (to_q): Linear(in_features=640, out_features=640, bias=False)
                    (to_k): Linear(in_features=768, out_features=640, bias=False)
                    (to_v): Linear(in_features=768, out_features=640, bias=False)
                    (to_out): Sequential(
                      (0): Linear(in_features=640, out_features=640, bias=True)
                      (1): Dropout(p=0.0, inplace=False)
                    )
                  )
                  (norm1): LayerNorm((640,), eps=1e-05, elementwise_affine=True)
                  (norm2): LayerNorm((640,), eps=1e-05, elementwise_affine=True)
                  (norm3): LayerNorm((640,), eps=1e-05, elementwise_affine=True)
                )
              )
              (proj_out): Conv2d(640, 640, kernel_size=(1, 1), stride=(1, 1))
            )
          )
          (8): TimestepEmbedSequential(
            (0): ResBlock(
              (in_layers): Sequential(
                (0): GroupNorm32(32, 960, eps=1e-05, affine=True)
                (1): SiLU()
                (2): Conv2d(960, 640, kernel_size=(3, 3), stride=(1, 1), padding=(1, 1))
              )
              (h_upd): Identity()
              (x_upd): Identity()
              (emb_layers): Sequential(
                (0): SiLU()
                (1): Linear(in_features=1280, out_features=640, bias=True)
              )
              (out_layers): Sequential(
                (0): GroupNorm32(32, 640, eps=1e-05, affine=True)
                (1): SiLU()
                (2): Dropout(p=0, inplace=False)
                (3): Conv2d(640, 640, kernel_size=(3, 3), stride=(1, 1), padding=(1, 1))
              )
              (skip_connection): Conv2d(960, 640, kernel_size=(1, 1), stride=(1, 1))
            )
            (1): SpatialTransformer(
              (norm): GroupNorm(32, 640, eps=1e-06, affine=True)
              (proj_in): Conv2d(640, 640, kernel_size=(1, 1), stride=(1, 1))
              (transformer_blocks): ModuleList(
                (0): BasicTransformerBlock(
                  (attn1): CrossAttention(
                    (to_q): Linear(in_features=640, out_features=640, bias=False)
                    (to_k): Linear(in_features=640, out_features=640, bias=False)
                    (to_v): Linear(in_features=640, out_features=640, bias=False)
                    (to_out): Sequential(
                      (0): Linear(in_features=640, out_features=640, bias=True)
                      (1): Dropout(p=0.0, inplace=False)
                    )
                  )
                  (ff): FeedForward(
                    (net): Sequential(
                      (0): GEGLU(
                        (proj): Linear(in_features=640, out_features=5120, bias=True)
                      )
                      (1): Dropout(p=0.0, inplace=False)
                      (2): Linear(in_features=2560, out_features=640, bias=True)
                    )
                  )
                  (attn2): CrossAttention(
                    (to_q): Linear(in_features=640, out_features=640, bias=False)
                    (to_k): Linear(in_features=768, out_features=640, bias=False)
                    (to_v): Linear(in_features=768, out_features=640, bias=False)
                    (to_out): Sequential(
                      (0): Linear(in_features=640, out_features=640, bias=True)
                      (1): Dropout(p=0.0, inplace=False)
                    )
                  )
                  (norm1): LayerNorm((640,), eps=1e-05, elementwise_affine=True)
                  (norm2): LayerNorm((640,), eps=1e-05, elementwise_affine=True)
                  (norm3): LayerNorm((640,), eps=1e-05, elementwise_affine=True)
                )
              )
              (proj_out): Conv2d(640, 640, kernel_size=(1, 1), stride=(1, 1))
            )
            (2): Upsample(
              (conv): Conv2d(640, 640, kernel_size=(3, 3), stride=(1, 1), padding=(1, 1))
            )
          )
          (9): TimestepEmbedSequential(
            (0): ResBlock(
              (in_layers): Sequential(
                (0): GroupNorm32(32, 960, eps=1e-05, affine=True)
                (1): SiLU()
                (2): Conv2d(960, 320, kernel_size=(3, 3), stride=(1, 1), padding=(1, 1))
              )
              (h_upd): Identity()
              (x_upd): Identity()
              (emb_layers): Sequential(
                (0): SiLU()
                (1): Linear(in_features=1280, out_features=320, bias=True)
              )
              (out_layers): Sequential(
                (0): GroupNorm32(32, 320, eps=1e-05, affine=True)
                (1): SiLU()
                (2): Dropout(p=0, inplace=False)
                (3): Conv2d(320, 320, kernel_size=(3, 3), stride=(1, 1), padding=(1, 1))
              )
              (skip_connection): Conv2d(960, 320, kernel_size=(1, 1), stride=(1, 1))
            )
            (1): SpatialTransformer(
              (norm): GroupNorm(32, 320, eps=1e-06, affine=True)
              (proj_in): Conv2d(320, 320, kernel_size=(1, 1), stride=(1, 1))
              (transformer_blocks): ModuleList(
                (0): BasicTransformerBlock(
                  (attn1): CrossAttention(
                    (to_q): Linear(in_features=320, out_features=320, bias=False)
                    (to_k): Linear(in_features=320, out_features=320, bias=False)
                    (to_v): Linear(in_features=320, out_features=320, bias=False)
                    (to_out): Sequential(
                      (0): Linear(in_features=320, out_features=320, bias=True)
                      (1): Dropout(p=0.0, inplace=False)
                    )
                  )
                  (ff): FeedForward(
                    (net): Sequential(
                      (0): GEGLU(
                        (proj): Linear(in_features=320, out_features=2560, bias=True)
                      )
                      (1): Dropout(p=0.0, inplace=False)
                      (2): Linear(in_features=1280, out_features=320, bias=True)
                    )
                  )
                  (attn2): CrossAttention(
                    (to_q): Linear(in_features=320, out_features=320, bias=False)
                    (to_k): Linear(in_features=768, out_features=320, bias=False)
                    (to_v): Linear(in_features=768, out_features=320, bias=False)
                    (to_out): Sequential(
                      (0): Linear(in_features=320, out_features=320, bias=True)
                      (1): Dropout(p=0.0, inplace=False)
                    )
                  )
                  (norm1): LayerNorm((320,), eps=1e-05, elementwise_affine=True)
                  (norm2): LayerNorm((320,), eps=1e-05, elementwise_affine=True)
                  (norm3): LayerNorm((320,), eps=1e-05, elementwise_affine=True)
                )
              )
              (proj_out): Conv2d(320, 320, kernel_size=(1, 1), stride=(1, 1))
            )
          )
          (10): TimestepEmbedSequential(
            (0): ResBlock(
              (in_layers): Sequential(
                (0): GroupNorm32(32, 640, eps=1e-05, affine=True)
                (1): SiLU()
                (2): Conv2d(640, 320, kernel_size=(3, 3), stride=(1, 1), padding=(1, 1))
              )
              (h_upd): Identity()
              (x_upd): Identity()
              (emb_layers): Sequential(
                (0): SiLU()
                (1): Linear(in_features=1280, out_features=320, bias=True)
              )
              (out_layers): Sequential(
                (0): GroupNorm32(32, 320, eps=1e-05, affine=True)
                (1): SiLU()
                (2): Dropout(p=0, inplace=False)
                (3): Conv2d(320, 320, kernel_size=(3, 3), stride=(1, 1), padding=(1, 1))
              )
              (skip_connection): Conv2d(640, 320, kernel_size=(1, 1), stride=(1, 1))
            )
            (1): SpatialTransformer(
              (norm): GroupNorm(32, 320, eps=1e-06, affine=True)
              (proj_in): Conv2d(320, 320, kernel_size=(1, 1), stride=(1, 1))
              (transformer_blocks): ModuleList(
                (0): BasicTransformerBlock(
                  (attn1): CrossAttention(
                    (to_q): Linear(in_features=320, out_features=320, bias=False)
                    (to_k): Linear(in_features=320, out_features=320, bias=False)
                    (to_v): Linear(in_features=320, out_features=320, bias=False)
                    (to_out): Sequential(
                      (0): Linear(in_features=320, out_features=320, bias=True)
                      (1): Dropout(p=0.0, inplace=False)
                    )
                  )
                  (ff): FeedForward(
                    (net): Sequential(
                      (0): GEGLU(
                        (proj): Linear(in_features=320, out_features=2560, bias=True)
                      )
                      (1): Dropout(p=0.0, inplace=False)
                      (2): Linear(in_features=1280, out_features=320, bias=True)
                    )
                  )
                  (attn2): CrossAttention(
                    (to_q): Linear(in_features=320, out_features=320, bias=False)
                    (to_k): Linear(in_features=768, out_features=320, bias=False)
                    (to_v): Linear(in_features=768, out_features=320, bias=False)
                    (to_out): Sequential(
                      (0): Linear(in_features=320, out_features=320, bias=True)
                      (1): Dropout(p=0.0, inplace=False)
                    )
                  )
                  (norm1): LayerNorm((320,), eps=1e-05, elementwise_affine=True)
                  (norm2): LayerNorm((320,), eps=1e-05, elementwise_affine=True)
                  (norm3): LayerNorm((320,), eps=1e-05, elementwise_affine=True)
                )
              )
              (proj_out): Conv2d(320, 320, kernel_size=(1, 1), stride=(1, 1))
            )
          )
          (11): TimestepEmbedSequential(
            (0): ResBlock(
              (in_layers): Sequential(
                (0): GroupNorm32(32, 640, eps=1e-05, affine=True)
                (1): SiLU()
                (2): Conv2d(640, 320, kernel_size=(3, 3), stride=(1, 1), padding=(1, 1))
              )
              (h_upd): Identity()
              (x_upd): Identity()
              (emb_layers): Sequential(
                (0): SiLU()
                (1): Linear(in_features=1280, out_features=320, bias=True)
              )
              (out_layers): Sequential(
                (0): GroupNorm32(32, 320, eps=1e-05, affine=True)
                (1): SiLU()
                (2): Dropout(p=0, inplace=False)
                (3): Conv2d(320, 320, kernel_size=(3, 3), stride=(1, 1), padding=(1, 1))
              )
              (skip_connection): Conv2d(640, 320, kernel_size=(1, 1), stride=(1, 1))
            )
            (1): SpatialTransformer(
              (norm): GroupNorm(32, 320, eps=1e-06, affine=True)
              (proj_in): Conv2d(320, 320, kernel_size=(1, 1), stride=(1, 1))
              (transformer_blocks): ModuleList(
                (0): BasicTransformerBlock(
                  (attn1): CrossAttention(
                    (to_q): Linear(in_features=320, out_features=320, bias=False)
                    (to_k): Linear(in_features=320, out_features=320, bias=False)
                    (to_v): Linear(in_features=320, out_features=320, bias=False)
                    (to_out): Sequential(
                      (0): Linear(in_features=320, out_features=320, bias=True)
                      (1): Dropout(p=0.0, inplace=False)
                    )
                  )
                  (ff): FeedForward(
                    (net): Sequential(
                      (0): GEGLU(
                        (proj): Linear(in_features=320, out_features=2560, bias=True)
                      )
                      (1): Dropout(p=0.0, inplace=False)
                      (2): Linear(in_features=1280, out_features=320, bias=True)
                    )
                  )
                  (attn2): CrossAttention(
                    (to_q): Linear(in_features=320, out_features=320, bias=False)
                    (to_k): Linear(in_features=768, out_features=320, bias=False)
                    (to_v): Linear(in_features=768, out_features=320, bias=False)
                    (to_out): Sequential(
                      (0): Linear(in_features=320, out_features=320, bias=True)
                      (1): Dropout(p=0.0, inplace=False)
                    )
                  )
                  (norm1): LayerNorm((320,), eps=1e-05, elementwise_affine=True)
                  (norm2): LayerNorm((320,), eps=1e-05, elementwise_affine=True)
                  (norm3): LayerNorm((320,), eps=1e-05, elementwise_affine=True)
                )
              )
              (proj_out): Conv2d(320, 320, kernel_size=(1, 1), stride=(1, 1))
            )
          )
        )
        (out): Sequential(
          (0): GroupNorm32(32, 320, eps=1e-05, affine=True)
          (1): SiLU()
          (2): Conv2d(320, 4, kernel_size=(3, 3), stride=(1, 1), padding=(1, 1))
        )
      )
    )
  )
  (sd_model): LatentDiffusion(
    (model): None
    (first_stage_model): None
  )
  (text_adapter): Linear(in_features=512, out_features=768, bias=True)
  (clip_adapter): Linear(in_features=512, out_features=512, bias=True)
  (transformer): DIFFHOI_S_Transformer(
    (encoder): TransformerEncoder(
      (layers): ModuleList(
        (0): TransformerEncoderLayer(
          (self_attn): MultiheadAttention(
            (out_proj): NonDynamicallyQuantizableLinear(in_features=256, out_features=256, bias=True)
          )
          (linear1): Linear(in_features=256, out_features=2048, bias=True)
          (dropout): Dropout(p=0.1, inplace=False)
          (linear2): Linear(in_features=2048, out_features=256, bias=True)
          (norm1): LayerNorm((256,), eps=1e-05, elementwise_affine=True)
          (norm2): LayerNorm((256,), eps=1e-05, elementwise_affine=True)
          (dropout1): Dropout(p=0.1, inplace=False)
          (dropout2): Dropout(p=0.1, inplace=False)
        )
        (1): TransformerEncoderLayer(
          (self_attn): MultiheadAttention(
            (out_proj): NonDynamicallyQuantizableLinear(in_features=256, out_features=256, bias=True)
          )
          (linear1): Linear(in_features=256, out_features=2048, bias=True)
          (dropout): Dropout(p=0.1, inplace=False)
          (linear2): Linear(in_features=2048, out_features=256, bias=True)
          (norm1): LayerNorm((256,), eps=1e-05, elementwise_affine=True)
          (norm2): LayerNorm((256,), eps=1e-05, elementwise_affine=True)
          (dropout1): Dropout(p=0.1, inplace=False)
          (dropout2): Dropout(p=0.1, inplace=False)
        )
        (2): TransformerEncoderLayer(
          (self_attn): MultiheadAttention(
            (out_proj): NonDynamicallyQuantizableLinear(in_features=256, out_features=256, bias=True)
          )
          (linear1): Linear(in_features=256, out_features=2048, bias=True)
          (dropout): Dropout(p=0.1, inplace=False)
          (linear2): Linear(in_features=2048, out_features=256, bias=True)
          (norm1): LayerNorm((256,), eps=1e-05, elementwise_affine=True)
          (norm2): LayerNorm((256,), eps=1e-05, elementwise_affine=True)
          (dropout1): Dropout(p=0.1, inplace=False)
          (dropout2): Dropout(p=0.1, inplace=False)
        )
        (3): TransformerEncoderLayer(
          (self_attn): MultiheadAttention(
            (out_proj): NonDynamicallyQuantizableLinear(in_features=256, out_features=256, bias=True)
          )
          (linear1): Linear(in_features=256, out_features=2048, bias=True)
          (dropout): Dropout(p=0.1, inplace=False)
          (linear2): Linear(in_features=2048, out_features=256, bias=True)
          (norm1): LayerNorm((256,), eps=1e-05, elementwise_affine=True)
          (norm2): LayerNorm((256,), eps=1e-05, elementwise_affine=True)
          (dropout1): Dropout(p=0.1, inplace=False)
          (dropout2): Dropout(p=0.1, inplace=False)
        )
        (4): TransformerEncoderLayer(
          (self_attn): MultiheadAttention(
            (out_proj): NonDynamicallyQuantizableLinear(in_features=256, out_features=256, bias=True)
          )
          (linear1): Linear(in_features=256, out_features=2048, bias=True)
          (dropout): Dropout(p=0.1, inplace=False)
          (linear2): Linear(in_features=2048, out_features=256, bias=True)
          (norm1): LayerNorm((256,), eps=1e-05, elementwise_affine=True)
          (norm2): LayerNorm((256,), eps=1e-05, elementwise_affine=True)
          (dropout1): Dropout(p=0.1, inplace=False)
          (dropout2): Dropout(p=0.1, inplace=False)
        )
        (5): TransformerEncoderLayer(
          (self_attn): MultiheadAttention(
            (out_proj): NonDynamicallyQuantizableLinear(in_features=256, out_features=256, bias=True)
          )
          (linear1): Linear(in_features=256, out_features=2048, bias=True)
          (dropout): Dropout(p=0.1, inplace=False)
          (linear2): Linear(in_features=2048, out_features=256, bias=True)
          (norm1): LayerNorm((256,), eps=1e-05, elementwise_affine=True)
          (norm2): LayerNorm((256,), eps=1e-05, elementwise_affine=True)
          (dropout1): Dropout(p=0.1, inplace=False)
          (dropout2): Dropout(p=0.1, inplace=False)
        )
      )
    )
    (instance_decoder): TransformerDecoder(
      (layers): ModuleList(
        (0): TransformerDecoderLayer(
          (self_attn): MultiheadAttention(
            (out_proj): NonDynamicallyQuantizableLinear(in_features=256, out_features=256, bias=True)
          )
          (multihead_attn): MultiheadAttention(
            (out_proj): NonDynamicallyQuantizableLinear(in_features=256, out_features=256, bias=True)
          )
          (linear1): Linear(in_features=256, out_features=2048, bias=True)
          (dropout): Dropout(p=0.1, inplace=False)
          (linear2): Linear(in_features=2048, out_features=256, bias=True)
          (norm1): LayerNorm((256,), eps=1e-05, elementwise_affine=True)
          (norm2): LayerNorm((256,), eps=1e-05, elementwise_affine=True)
          (norm3): LayerNorm((256,), eps=1e-05, elementwise_affine=True)
          (dropout1): Dropout(p=0.1, inplace=False)
          (dropout2): Dropout(p=0.1, inplace=False)
          (dropout3): Dropout(p=0.1, inplace=False)
        )
        (1): TransformerDecoderLayer(
          (self_attn): MultiheadAttention(
            (out_proj): NonDynamicallyQuantizableLinear(in_features=256, out_features=256, bias=True)
          )
          (multihead_attn): MultiheadAttention(
            (out_proj): NonDynamicallyQuantizableLinear(in_features=256, out_features=256, bias=True)
          )
          (linear1): Linear(in_features=256, out_features=2048, bias=True)
          (dropout): Dropout(p=0.1, inplace=False)
          (linear2): Linear(in_features=2048, out_features=256, bias=True)
          (norm1): LayerNorm((256,), eps=1e-05, elementwise_affine=True)
          (norm2): LayerNorm((256,), eps=1e-05, elementwise_affine=True)
          (norm3): LayerNorm((256,), eps=1e-05, elementwise_affine=True)
          (dropout1): Dropout(p=0.1, inplace=False)
          (dropout2): Dropout(p=0.1, inplace=False)
          (dropout3): Dropout(p=0.1, inplace=False)
        )
        (2): TransformerDecoderLayer(
          (self_attn): MultiheadAttention(
            (out_proj): NonDynamicallyQuantizableLinear(in_features=256, out_features=256, bias=True)
          )
          (multihead_attn): MultiheadAttention(
            (out_proj): NonDynamicallyQuantizableLinear(in_features=256, out_features=256, bias=True)
          )
          (linear1): Linear(in_features=256, out_features=2048, bias=True)
          (dropout): Dropout(p=0.1, inplace=False)
          (linear2): Linear(in_features=2048, out_features=256, bias=True)
          (norm1): LayerNorm((256,), eps=1e-05, elementwise_affine=True)
          (norm2): LayerNorm((256,), eps=1e-05, elementwise_affine=True)
          (norm3): LayerNorm((256,), eps=1e-05, elementwise_affine=True)
          (dropout1): Dropout(p=0.1, inplace=False)
          (dropout2): Dropout(p=0.1, inplace=False)
          (dropout3): Dropout(p=0.1, inplace=False)
        )
      )
      (norm): LayerNorm((256,), eps=1e-05, elementwise_affine=True)
    )
    (interaction_decoder): TransformerDecoder(
      (layers): ModuleList(
        (0): TransformerDecoderLayer(
          (self_attn): MultiheadAttention(
            (out_proj): NonDynamicallyQuantizableLinear(in_features=256, out_features=256, bias=True)
          )
          (multihead_attn): MultiheadAttention(
            (out_proj): NonDynamicallyQuantizableLinear(in_features=256, out_features=256, bias=True)
          )
          (linear1): Linear(in_features=256, out_features=2048, bias=True)
          (dropout): Dropout(p=0.1, inplace=False)
          (linear2): Linear(in_features=2048, out_features=256, bias=True)
          (norm1): LayerNorm((256,), eps=1e-05, elementwise_affine=True)
          (norm2): LayerNorm((256,), eps=1e-05, elementwise_affine=True)
          (norm3): LayerNorm((256,), eps=1e-05, elementwise_affine=True)
          (dropout1): Dropout(p=0.1, inplace=False)
          (dropout2): Dropout(p=0.1, inplace=False)
          (dropout3): Dropout(p=0.1, inplace=False)
        )
        (1): TransformerDecoderLayer(
          (self_attn): MultiheadAttention(
            (out_proj): NonDynamicallyQuantizableLinear(in_features=256, out_features=256, bias=True)
          )
          (multihead_attn): MultiheadAttention(
            (out_proj): NonDynamicallyQuantizableLinear(in_features=256, out_features=256, bias=True)
          )
          (linear1): Linear(in_features=256, out_features=2048, bias=True)
          (dropout): Dropout(p=0.1, inplace=False)
          (linear2): Linear(in_features=2048, out_features=256, bias=True)
          (norm1): LayerNorm((256,), eps=1e-05, elementwise_affine=True)
          (norm2): LayerNorm((256,), eps=1e-05, elementwise_affine=True)
          (norm3): LayerNorm((256,), eps=1e-05, elementwise_affine=True)
          (dropout1): Dropout(p=0.1, inplace=False)
          (dropout2): Dropout(p=0.1, inplace=False)
          (dropout3): Dropout(p=0.1, inplace=False)
        )
        (2): TransformerDecoderLayer(
          (self_attn): MultiheadAttention(
            (out_proj): NonDynamicallyQuantizableLinear(in_features=256, out_features=256, bias=True)
          )
          (multihead_attn): MultiheadAttention(
            (out_proj): NonDynamicallyQuantizableLinear(in_features=256, out_features=256, bias=True)
          )
          (linear1): Linear(in_features=256, out_features=2048, bias=True)
          (dropout): Dropout(p=0.1, inplace=False)
          (linear2): Linear(in_features=2048, out_features=256, bias=True)
          (norm1): LayerNorm((256,), eps=1e-05, elementwise_affine=True)
          (norm2): LayerNorm((256,), eps=1e-05, elementwise_affine=True)
          (norm3): LayerNorm((256,), eps=1e-05, elementwise_affine=True)
          (dropout1): Dropout(p=0.1, inplace=False)
          (dropout2): Dropout(p=0.1, inplace=False)
          (dropout3): Dropout(p=0.1, inplace=False)
        )
      )
      (norm): LayerNorm((256,), eps=1e-05, elementwise_affine=True)
    )
    (project): Linear(in_features=256, out_features=256, bias=True)
    (laynorm): LayerNorm((256,), eps=256, elementwise_affine=True)
  )
  (query_embed_h): Embedding(64, 256)
  (query_embed_o): Embedding(64, 256)
  (pos_guided_embedd): Embedding(64, 256)
  (hum_bbox_embed): MLP(
    (layers): ModuleList(
      (0): Linear(in_features=256, out_features=256, bias=True)
      (1): Linear(in_features=256, out_features=256, bias=True)
      (2): Linear(in_features=256, out_features=4, bias=True)
    )
  )
  (obj_bbox_embed): MLP(
    (layers): ModuleList(
      (0): Linear(in_features=256, out_features=256, bias=True)
      (1): Linear(in_features=256, out_features=256, bias=True)
      (2): Linear(in_features=256, out_features=4, bias=True)
    )
  )
  (input_proj): Conv2d(2048, 256, kernel_size=(1, 1), stride=(1, 1))
  (backbone): Joiner(
    (0): Backbone(
      (body): IntermediateLayerGetter(
        (conv1): Conv2d(3, 64, kernel_size=(7, 7), stride=(2, 2), padding=(3, 3), bias=False)
        (bn1): FrozenBatchNorm2d()
        (relu): ReLU(inplace=True)
        (maxpool): MaxPool2d(kernel_size=3, stride=2, padding=1, dilation=1, ceil_mode=False)
        (layer1): Sequential(
          (0): Bottleneck(
            (conv1): Conv2d(64, 64, kernel_size=(1, 1), stride=(1, 1), bias=False)
            (bn1): FrozenBatchNorm2d()
            (conv2): Conv2d(64, 64, kernel_size=(3, 3), stride=(1, 1), padding=(1, 1), bias=False)
            (bn2): FrozenBatchNorm2d()
            (conv3): Conv2d(64, 256, kernel_size=(1, 1), stride=(1, 1), bias=False)
            (bn3): FrozenBatchNorm2d()
            (relu): ReLU(inplace=True)
            (downsample): Sequential(
              (0): Conv2d(64, 256, kernel_size=(1, 1), stride=(1, 1), bias=False)
              (1): FrozenBatchNorm2d()
            )
          )
          (1): Bottleneck(
            (conv1): Conv2d(256, 64, kernel_size=(1, 1), stride=(1, 1), bias=False)
            (bn1): FrozenBatchNorm2d()
            (conv2): Conv2d(64, 64, kernel_size=(3, 3), stride=(1, 1), padding=(1, 1), bias=False)
            (bn2): FrozenBatchNorm2d()
            (conv3): Conv2d(64, 256, kernel_size=(1, 1), stride=(1, 1), bias=False)
            (bn3): FrozenBatchNorm2d()
            (relu): ReLU(inplace=True)
          )
          (2): Bottleneck(
            (conv1): Conv2d(256, 64, kernel_size=(1, 1), stride=(1, 1), bias=False)
            (bn1): FrozenBatchNorm2d()
            (conv2): Conv2d(64, 64, kernel_size=(3, 3), stride=(1, 1), padding=(1, 1), bias=False)
            (bn2): FrozenBatchNorm2d()
            (conv3): Conv2d(64, 256, kernel_size=(1, 1), stride=(1, 1), bias=False)
            (bn3): FrozenBatchNorm2d()
            (relu): ReLU(inplace=True)
          )
        )
        (layer2): Sequential(
          (0): Bottleneck(
            (conv1): Conv2d(256, 128, kernel_size=(1, 1), stride=(1, 1), bias=False)
            (bn1): FrozenBatchNorm2d()
            (conv2): Conv2d(128, 128, kernel_size=(3, 3), stride=(2, 2), padding=(1, 1), bias=False)
            (bn2): FrozenBatchNorm2d()
            (conv3): Conv2d(128, 512, kernel_size=(1, 1), stride=(1, 1), bias=False)
            (bn3): FrozenBatchNorm2d()
            (relu): ReLU(inplace=True)
            (downsample): Sequential(
              (0): Conv2d(256, 512, kernel_size=(1, 1), stride=(2, 2), bias=False)
              (1): FrozenBatchNorm2d()
            )
          )
          (1): Bottleneck(
            (conv1): Conv2d(512, 128, kernel_size=(1, 1), stride=(1, 1), bias=False)
            (bn1): FrozenBatchNorm2d()
            (conv2): Conv2d(128, 128, kernel_size=(3, 3), stride=(1, 1), padding=(1, 1), bias=False)
            (bn2): FrozenBatchNorm2d()
            (conv3): Conv2d(128, 512, kernel_size=(1, 1), stride=(1, 1), bias=False)
            (bn3): FrozenBatchNorm2d()
            (relu): ReLU(inplace=True)
          )
          (2): Bottleneck(
            (conv1): Conv2d(512, 128, kernel_size=(1, 1), stride=(1, 1), bias=False)
            (bn1): FrozenBatchNorm2d()
            (conv2): Conv2d(128, 128, kernel_size=(3, 3), stride=(1, 1), padding=(1, 1), bias=False)
            (bn2): FrozenBatchNorm2d()
            (conv3): Conv2d(128, 512, kernel_size=(1, 1), stride=(1, 1), bias=False)
            (bn3): FrozenBatchNorm2d()
            (relu): ReLU(inplace=True)
          )
          (3): Bottleneck(
            (conv1): Conv2d(512, 128, kernel_size=(1, 1), stride=(1, 1), bias=False)
            (bn1): FrozenBatchNorm2d()
            (conv2): Conv2d(128, 128, kernel_size=(3, 3), stride=(1, 1), padding=(1, 1), bias=False)
            (bn2): FrozenBatchNorm2d()
            (conv3): Conv2d(128, 512, kernel_size=(1, 1), stride=(1, 1), bias=False)
            (bn3): FrozenBatchNorm2d()
            (relu): ReLU(inplace=True)
          )
        )
        (layer3): Sequential(
          (0): Bottleneck(
            (conv1): Conv2d(512, 256, kernel_size=(1, 1), stride=(1, 1), bias=False)
            (bn1): FrozenBatchNorm2d()
            (conv2): Conv2d(256, 256, kernel_size=(3, 3), stride=(2, 2), padding=(1, 1), bias=False)
            (bn2): FrozenBatchNorm2d()
            (conv3): Conv2d(256, 1024, kernel_size=(1, 1), stride=(1, 1), bias=False)
            (bn3): FrozenBatchNorm2d()
            (relu): ReLU(inplace=True)
            (downsample): Sequential(
              (0): Conv2d(512, 1024, kernel_size=(1, 1), stride=(2, 2), bias=False)
              (1): FrozenBatchNorm2d()
            )
          )
          (1): Bottleneck(
            (conv1): Conv2d(1024, 256, kernel_size=(1, 1), stride=(1, 1), bias=False)
            (bn1): FrozenBatchNorm2d()
            (conv2): Conv2d(256, 256, kernel_size=(3, 3), stride=(1, 1), padding=(1, 1), bias=False)
            (bn2): FrozenBatchNorm2d()
            (conv3): Conv2d(256, 1024, kernel_size=(1, 1), stride=(1, 1), bias=False)
            (bn3): FrozenBatchNorm2d()
            (relu): ReLU(inplace=True)
          )
          (2): Bottleneck(
            (conv1): Conv2d(1024, 256, kernel_size=(1, 1), stride=(1, 1), bias=False)
            (bn1): FrozenBatchNorm2d()
            (conv2): Conv2d(256, 256, kernel_size=(3, 3), stride=(1, 1), padding=(1, 1), bias=False)
            (bn2): FrozenBatchNorm2d()
            (conv3): Conv2d(256, 1024, kernel_size=(1, 1), stride=(1, 1), bias=False)
            (bn3): FrozenBatchNorm2d()
            (relu): ReLU(inplace=True)
          )
          (3): Bottleneck(
            (conv1): Conv2d(1024, 256, kernel_size=(1, 1), stride=(1, 1), bias=False)
            (bn1): FrozenBatchNorm2d()
            (conv2): Conv2d(256, 256, kernel_size=(3, 3), stride=(1, 1), padding=(1, 1), bias=False)
            (bn2): FrozenBatchNorm2d()
            (conv3): Conv2d(256, 1024, kernel_size=(1, 1), stride=(1, 1), bias=False)
            (bn3): FrozenBatchNorm2d()
            (relu): ReLU(inplace=True)
          )
          (4): Bottleneck(
            (conv1): Conv2d(1024, 256, kernel_size=(1, 1), stride=(1, 1), bias=False)
            (bn1): FrozenBatchNorm2d()
            (conv2): Conv2d(256, 256, kernel_size=(3, 3), stride=(1, 1), padding=(1, 1), bias=False)
            (bn2): FrozenBatchNorm2d()
            (conv3): Conv2d(256, 1024, kernel_size=(1, 1), stride=(1, 1), bias=False)
            (bn3): FrozenBatchNorm2d()
            (relu): ReLU(inplace=True)
          )
          (5): Bottleneck(
            (conv1): Conv2d(1024, 256, kernel_size=(1, 1), stride=(1, 1), bias=False)
            (bn1): FrozenBatchNorm2d()
            (conv2): Conv2d(256, 256, kernel_size=(3, 3), stride=(1, 1), padding=(1, 1), bias=False)
            (bn2): FrozenBatchNorm2d()
            (conv3): Conv2d(256, 1024, kernel_size=(1, 1), stride=(1, 1), bias=False)
            (bn3): FrozenBatchNorm2d()
            (relu): ReLU(inplace=True)
          )
        )
        (layer4): Sequential(
          (0): Bottleneck(
            (conv1): Conv2d(1024, 512, kernel_size=(1, 1), stride=(1, 1), bias=False)
            (bn1): FrozenBatchNorm2d()
            (conv2): Conv2d(512, 512, kernel_size=(3, 3), stride=(2, 2), padding=(1, 1), bias=False)
            (bn2): FrozenBatchNorm2d()
            (conv3): Conv2d(512, 2048, kernel_size=(1, 1), stride=(1, 1), bias=False)
            (bn3): FrozenBatchNorm2d()
            (relu): ReLU(inplace=True)
            (downsample): Sequential(
              (0): Conv2d(1024, 2048, kernel_size=(1, 1), stride=(2, 2), bias=False)
              (1): FrozenBatchNorm2d()
            )
          )
          (1): Bottleneck(
            (conv1): Conv2d(2048, 512, kernel_size=(1, 1), stride=(1, 1), bias=False)
            (bn1): FrozenBatchNorm2d()
            (conv2): Conv2d(512, 512, kernel_size=(3, 3), stride=(1, 1), padding=(1, 1), bias=False)
            (bn2): FrozenBatchNorm2d()
            (conv3): Conv2d(512, 2048, kernel_size=(1, 1), stride=(1, 1), bias=False)
            (bn3): FrozenBatchNorm2d()
            (relu): ReLU(inplace=True)
          )
          (2): Bottleneck(
            (conv1): Conv2d(2048, 512, kernel_size=(1, 1), stride=(1, 1), bias=False)
            (bn1): FrozenBatchNorm2d()
            (conv2): Conv2d(512, 512, kernel_size=(3, 3), stride=(1, 1), padding=(1, 1), bias=False)
            (bn2): FrozenBatchNorm2d()
            (conv3): Conv2d(512, 2048, kernel_size=(1, 1), stride=(1, 1), bias=False)
            (bn3): FrozenBatchNorm2d()
            (relu): ReLU(inplace=True)
          )
        )
      )
    )
    (1): PositionEmbeddingSine()
  )
  (image_adapter): Conv2d(1280, 256, kernel_size=(1, 1), stride=(1, 1))
  (hoi_class_fc): Sequential(
    (0): Linear(in_features=256, out_features=512, bias=True)
    (1): LayerNorm((512,), eps=1e-05, elementwise_affine=True)
  )
  (visual_projection): Linear(in_features=512, out_features=600, bias=True)
  (obj_class_fc): Sequential(
    (0): Linear(in_features=256, out_features=512, bias=True)
    (1): LayerNorm((512,), eps=1e-05, elementwise_affine=True)
  )
  (obj_visual_projection): Linear(in_features=512, out_features=81, bias=True)
  (clip_model): CLIP(
    (visual): VisionTransformer(
      (conv1): Conv2d(3, 768, kernel_size=(32, 32), stride=(32, 32), bias=False)
      (ln_pre): LayerNorm((768,), eps=1e-05, elementwise_affine=True)
      (transformer): Transformer(
        (resblocks): Sequential(
          (0): ResidualAttentionBlock(
            (attn): MultiheadAttention(
              (out_proj): NonDynamicallyQuantizableLinear(in_features=768, out_features=768, bias=True)
            )
            (ln_1): LayerNorm((768,), eps=1e-05, elementwise_affine=True)
            (mlp): Sequential(
              (c_fc): Linear(in_features=768, out_features=3072, bias=True)
              (gelu): QuickGELU()
              (c_proj): Linear(in_features=3072, out_features=768, bias=True)
            )
            (ln_2): LayerNorm((768,), eps=1e-05, elementwise_affine=True)
          )
          (1): ResidualAttentionBlock(
            (attn): MultiheadAttention(
              (out_proj): NonDynamicallyQuantizableLinear(in_features=768, out_features=768, bias=True)
            )
            (ln_1): LayerNorm((768,), eps=1e-05, elementwise_affine=True)
            (mlp): Sequential(
              (c_fc): Linear(in_features=768, out_features=3072, bias=True)
              (gelu): QuickGELU()
              (c_proj): Linear(in_features=3072, out_features=768, bias=True)
            )
            (ln_2): LayerNorm((768,), eps=1e-05, elementwise_affine=True)
          )
          (2): ResidualAttentionBlock(
            (attn): MultiheadAttention(
              (out_proj): NonDynamicallyQuantizableLinear(in_features=768, out_features=768, bias=True)
            )
            (ln_1): LayerNorm((768,), eps=1e-05, elementwise_affine=True)
            (mlp): Sequential(
              (c_fc): Linear(in_features=768, out_features=3072, bias=True)
              (gelu): QuickGELU()
              (c_proj): Linear(in_features=3072, out_features=768, bias=True)
            )
            (ln_2): LayerNorm((768,), eps=1e-05, elementwise_affine=True)
          )
          (3): ResidualAttentionBlock(
            (attn): MultiheadAttention(
              (out_proj): NonDynamicallyQuantizableLinear(in_features=768, out_features=768, bias=True)
            )
            (ln_1): LayerNorm((768,), eps=1e-05, elementwise_affine=True)
            (mlp): Sequential(
              (c_fc): Linear(in_features=768, out_features=3072, bias=True)
              (gelu): QuickGELU()
              (c_proj): Linear(in_features=3072, out_features=768, bias=True)
            )
            (ln_2): LayerNorm((768,), eps=1e-05, elementwise_affine=True)
          )
          (4): ResidualAttentionBlock(
            (attn): MultiheadAttention(
              (out_proj): NonDynamicallyQuantizableLinear(in_features=768, out_features=768, bias=True)
            )
            (ln_1): LayerNorm((768,), eps=1e-05, elementwise_affine=True)
            (mlp): Sequential(
              (c_fc): Linear(in_features=768, out_features=3072, bias=True)
              (gelu): QuickGELU()
              (c_proj): Linear(in_features=3072, out_features=768, bias=True)
            )
            (ln_2): LayerNorm((768,), eps=1e-05, elementwise_affine=True)
          )
          (5): ResidualAttentionBlock(
            (attn): MultiheadAttention(
              (out_proj): NonDynamicallyQuantizableLinear(in_features=768, out_features=768, bias=True)
            )
            (ln_1): LayerNorm((768,), eps=1e-05, elementwise_affine=True)
            (mlp): Sequential(
              (c_fc): Linear(in_features=768, out_features=3072, bias=True)
              (gelu): QuickGELU()
              (c_proj): Linear(in_features=3072, out_features=768, bias=True)
            )
            (ln_2): LayerNorm((768,), eps=1e-05, elementwise_affine=True)
          )
          (6): ResidualAttentionBlock(
            (attn): MultiheadAttention(
              (out_proj): NonDynamicallyQuantizableLinear(in_features=768, out_features=768, bias=True)
            )
            (ln_1): LayerNorm((768,), eps=1e-05, elementwise_affine=True)
            (mlp): Sequential(
              (c_fc): Linear(in_features=768, out_features=3072, bias=True)
              (gelu): QuickGELU()
              (c_proj): Linear(in_features=3072, out_features=768, bias=True)
            )
            (ln_2): LayerNorm((768,), eps=1e-05, elementwise_affine=True)
          )
          (7): ResidualAttentionBlock(
            (attn): MultiheadAttention(
              (out_proj): NonDynamicallyQuantizableLinear(in_features=768, out_features=768, bias=True)
            )
            (ln_1): LayerNorm((768,), eps=1e-05, elementwise_affine=True)
            (mlp): Sequential(
              (c_fc): Linear(in_features=768, out_features=3072, bias=True)
              (gelu): QuickGELU()
              (c_proj): Linear(in_features=3072, out_features=768, bias=True)
            )
            (ln_2): LayerNorm((768,), eps=1e-05, elementwise_affine=True)
          )
          (8): ResidualAttentionBlock(
            (attn): MultiheadAttention(
              (out_proj): NonDynamicallyQuantizableLinear(in_features=768, out_features=768, bias=True)
            )
            (ln_1): LayerNorm((768,), eps=1e-05, elementwise_affine=True)
            (mlp): Sequential(
              (c_fc): Linear(in_features=768, out_features=3072, bias=True)
              (gelu): QuickGELU()
              (c_proj): Linear(in_features=3072, out_features=768, bias=True)
            )
            (ln_2): LayerNorm((768,), eps=1e-05, elementwise_affine=True)
          )
          (9): ResidualAttentionBlock(
            (attn): MultiheadAttention(
              (out_proj): NonDynamicallyQuantizableLinear(in_features=768, out_features=768, bias=True)
            )
            (ln_1): LayerNorm((768,), eps=1e-05, elementwise_affine=True)
            (mlp): Sequential(
              (c_fc): Linear(in_features=768, out_features=3072, bias=True)
              (gelu): QuickGELU()
              (c_proj): Linear(in_features=3072, out_features=768, bias=True)
            )
            (ln_2): LayerNorm((768,), eps=1e-05, elementwise_affine=True)
          )
          (10): ResidualAttentionBlock(
            (attn): MultiheadAttention(
              (out_proj): NonDynamicallyQuantizableLinear(in_features=768, out_features=768, bias=True)
            )
            (ln_1): LayerNorm((768,), eps=1e-05, elementwise_affine=True)
            (mlp): Sequential(
              (c_fc): Linear(in_features=768, out_features=3072, bias=True)
              (gelu): QuickGELU()
              (c_proj): Linear(in_features=3072, out_features=768, bias=True)
            )
            (ln_2): LayerNorm((768,), eps=1e-05, elementwise_affine=True)
          )
          (11): ResidualAttentionBlock(
            (attn): MultiheadAttention(
              (out_proj): NonDynamicallyQuantizableLinear(in_features=768, out_features=768, bias=True)
            )
            (ln_1): LayerNorm((768,), eps=1e-05, elementwise_affine=True)
            (mlp): Sequential(
              (c_fc): Linear(in_features=768, out_features=3072, bias=True)
              (gelu): QuickGELU()
              (c_proj): Linear(in_features=3072, out_features=768, bias=True)
            )
            (ln_2): LayerNorm((768,), eps=1e-05, elementwise_affine=True)
          )
        )
      )
      (ln_post): LayerNorm((768,), eps=1e-05, elementwise_affine=True)
    )
    (transformer): Transformer(
      (resblocks): Sequential(
        (0): ResidualAttentionBlock(
          (attn): MultiheadAttention(
            (out_proj): NonDynamicallyQuantizableLinear(in_features=512, out_features=512, bias=True)
          )
          (ln_1): LayerNorm((512,), eps=1e-05, elementwise_affine=True)
          (mlp): Sequential(
            (c_fc): Linear(in_features=512, out_features=2048, bias=True)
            (gelu): QuickGELU()
            (c_proj): Linear(in_features=2048, out_features=512, bias=True)
          )
          (ln_2): LayerNorm((512,), eps=1e-05, elementwise_affine=True)
        )
        (1): ResidualAttentionBlock(
          (attn): MultiheadAttention(
            (out_proj): NonDynamicallyQuantizableLinear(in_features=512, out_features=512, bias=True)
          )
          (ln_1): LayerNorm((512,), eps=1e-05, elementwise_affine=True)
          (mlp): Sequential(
            (c_fc): Linear(in_features=512, out_features=2048, bias=True)
            (gelu): QuickGELU()
            (c_proj): Linear(in_features=2048, out_features=512, bias=True)
          )
          (ln_2): LayerNorm((512,), eps=1e-05, elementwise_affine=True)
        )
        (2): ResidualAttentionBlock(
          (attn): MultiheadAttention(
            (out_proj): NonDynamicallyQuantizableLinear(in_features=512, out_features=512, bias=True)
          )
          (ln_1): LayerNorm((512,), eps=1e-05, elementwise_affine=True)
          (mlp): Sequential(
            (c_fc): Linear(in_features=512, out_features=2048, bias=True)
            (gelu): QuickGELU()
            (c_proj): Linear(in_features=2048, out_features=512, bias=True)
          )
          (ln_2): LayerNorm((512,), eps=1e-05, elementwise_affine=True)
        )
        (3): ResidualAttentionBlock(
          (attn): MultiheadAttention(
            (out_proj): NonDynamicallyQuantizableLinear(in_features=512, out_features=512, bias=True)
          )
          (ln_1): LayerNorm((512,), eps=1e-05, elementwise_affine=True)
          (mlp): Sequential(
            (c_fc): Linear(in_features=512, out_features=2048, bias=True)
            (gelu): QuickGELU()
            (c_proj): Linear(in_features=2048, out_features=512, bias=True)
          )
          (ln_2): LayerNorm((512,), eps=1e-05, elementwise_affine=True)
        )
        (4): ResidualAttentionBlock(
          (attn): MultiheadAttention(
            (out_proj): NonDynamicallyQuantizableLinear(in_features=512, out_features=512, bias=True)
          )
          (ln_1): LayerNorm((512,), eps=1e-05, elementwise_affine=True)
          (mlp): Sequential(
            (c_fc): Linear(in_features=512, out_features=2048, bias=True)
            (gelu): QuickGELU()
            (c_proj): Linear(in_features=2048, out_features=512, bias=True)
          )
          (ln_2): LayerNorm((512,), eps=1e-05, elementwise_affine=True)
        )
        (5): ResidualAttentionBlock(
          (attn): MultiheadAttention(
            (out_proj): NonDynamicallyQuantizableLinear(in_features=512, out_features=512, bias=True)
          )
          (ln_1): LayerNorm((512,), eps=1e-05, elementwise_affine=True)
          (mlp): Sequential(
            (c_fc): Linear(in_features=512, out_features=2048, bias=True)
            (gelu): QuickGELU()
            (c_proj): Linear(in_features=2048, out_features=512, bias=True)
          )
          (ln_2): LayerNorm((512,), eps=1e-05, elementwise_affine=True)
        )
        (6): ResidualAttentionBlock(
          (attn): MultiheadAttention(
            (out_proj): NonDynamicallyQuantizableLinear(in_features=512, out_features=512, bias=True)
          )
          (ln_1): LayerNorm((512,), eps=1e-05, elementwise_affine=True)
          (mlp): Sequential(
            (c_fc): Linear(in_features=512, out_features=2048, bias=True)
            (gelu): QuickGELU()
            (c_proj): Linear(in_features=2048, out_features=512, bias=True)
          )
          (ln_2): LayerNorm((512,), eps=1e-05, elementwise_affine=True)
        )
        (7): ResidualAttentionBlock(
          (attn): MultiheadAttention(
            (out_proj): NonDynamicallyQuantizableLinear(in_features=512, out_features=512, bias=True)
          )
          (ln_1): LayerNorm((512,), eps=1e-05, elementwise_affine=True)
          (mlp): Sequential(
            (c_fc): Linear(in_features=512, out_features=2048, bias=True)
            (gelu): QuickGELU()
            (c_proj): Linear(in_features=2048, out_features=512, bias=True)
          )
          (ln_2): LayerNorm((512,), eps=1e-05, elementwise_affine=True)
        )
        (8): ResidualAttentionBlock(
          (attn): MultiheadAttention(
            (out_proj): NonDynamicallyQuantizableLinear(in_features=512, out_features=512, bias=True)
          )
          (ln_1): LayerNorm((512,), eps=1e-05, elementwise_affine=True)
          (mlp): Sequential(
            (c_fc): Linear(in_features=512, out_features=2048, bias=True)
            (gelu): QuickGELU()
            (c_proj): Linear(in_features=2048, out_features=512, bias=True)
          )
          (ln_2): LayerNorm((512,), eps=1e-05, elementwise_affine=True)
        )
        (9): ResidualAttentionBlock(
          (attn): MultiheadAttention(
            (out_proj): NonDynamicallyQuantizableLinear(in_features=512, out_features=512, bias=True)
          )
          (ln_1): LayerNorm((512,), eps=1e-05, elementwise_affine=True)
          (mlp): Sequential(
            (c_fc): Linear(in_features=512, out_features=2048, bias=True)
            (gelu): QuickGELU()
            (c_proj): Linear(in_features=2048, out_features=512, bias=True)
          )
          (ln_2): LayerNorm((512,), eps=1e-05, elementwise_affine=True)
        )
        (10): ResidualAttentionBlock(
          (attn): MultiheadAttention(
            (out_proj): NonDynamicallyQuantizableLinear(in_features=512, out_features=512, bias=True)
          )
          (ln_1): LayerNorm((512,), eps=1e-05, elementwise_affine=True)
          (mlp): Sequential(
            (c_fc): Linear(in_features=512, out_features=2048, bias=True)
            (gelu): QuickGELU()
            (c_proj): Linear(in_features=2048, out_features=512, bias=True)
          )
          (ln_2): LayerNorm((512,), eps=1e-05, elementwise_affine=True)
        )
        (11): ResidualAttentionBlock(
          (attn): MultiheadAttention(
            (out_proj): NonDynamicallyQuantizableLinear(in_features=512, out_features=512, bias=True)
          )
          (ln_1): LayerNorm((512,), eps=1e-05, elementwise_affine=True)
          (mlp): Sequential(
            (c_fc): Linear(in_features=512, out_features=2048, bias=True)
            (gelu): QuickGELU()
            (c_proj): Linear(in_features=2048, out_features=512, bias=True)
          )
          (ln_2): LayerNorm((512,), eps=1e-05, elementwise_affine=True)
        )
      )
    )
    (token_embedding): Embedding(49408, 512)
    (ln_final): LayerNorm((512,), eps=1e-05, elementwise_affine=True)
  )
)
